…
  warnings.warn(
2025-04-22 18:36:58,608 - mmseg - INFO - initialize FPN with init_cfg {'type': 'Xavier', 'layer': 'Conv2d', 'distribution': 'uniform'}
2025-04-22 18:36:58,625 - mmseg - INFO - initialize FPNHead with init_cfg {'type': 'Normal', 'std': 0.01, 'override': {'name': 'conv_seg'}}
segmentation/train.py:238: UserWarning: SyncBN is only supported with DDP. To be compatible with DP, we convert SyncBN to BN. Please use dist_train.sh which can avoid this error.
  warnings.warn(
2025-04-22 18:36:59,196 - mmseg - INFO - VPDSeg(
  (encoder_vq): AutoencoderKL(
    (encoder): Encoder(
      (conv_in): Conv2d(3, 128, kernel_size=(3, 3), stride=(1, 1), padding=(1, 1))
      (down): ModuleList(
        (0): Module(
          (block): ModuleList(
            (0): ResnetBlock(
              (norm1): GroupNorm(32, 128, eps=1e-06, affine=True)
              (conv1): Conv2d(128, 128, kernel_size=(3, 3), stride=(1, 1), padding=(1, 1))
              (norm2): GroupNorm(32, 128, eps=1e-06, affine=True)
              (dropout): Dropout(p=0.0, inplace=False)
              (conv2): Conv2d(128, 128, kernel_size=(3, 3), stride=(1, 1), padding=(1, 1))
            )
            (1): ResnetBlock(
              (norm1): GroupNorm(32, 128, eps=1e-06, affine=True)
              (conv1): Conv2d(128, 128, kernel_size=(3, 3), stride=(1, 1), padding=(1, 1))
              (norm2): GroupNorm(32, 128, eps=1e-06, affine=True)
              (dropout): Dropout(p=0.0, inplace=False)
              (conv2): Conv2d(128, 128, kernel_size=(3, 3), stride=(1, 1), padding=(1, 1))
            )
          )
          (attn): ModuleList()
          (downsample): Downsample(
            (conv): Conv2d(128, 128, kernel_size=(3, 3), stride=(2, 2))
          )
        )
        (1): Module(
          (block): ModuleList(
            (0): ResnetBlock(
              (norm1): GroupNorm(32, 128, eps=1e-06, affine=True)
              (conv1): Conv2d(128, 256, kernel_size=(3, 3), stride=(1, 1), padding=(1, 1))
              (norm2): GroupNorm(32, 256, eps=1e-06, affine=True)
              (dropout): Dropout(p=0.0, inplace=False)
              (conv2): Conv2d(256, 256, kernel_size=(3, 3), stride=(1, 1), padding=(1, 1))
              (nin_shortcut): Conv2d(128, 256, kernel_size=(1, 1), stride=(1, 1))
            )
            (1): ResnetBlock(
              (norm1): GroupNorm(32, 256, eps=1e-06, affine=True)
              (conv1): Conv2d(256, 256, kernel_size=(3, 3), stride=(1, 1), padding=(1, 1))
              (norm2): GroupNorm(32, 256, eps=1e-06, affine=True)
              (dropout): Dropout(p=0.0, inplace=False)
              (conv2): Conv2d(256, 256, kernel_size=(3, 3), stride=(1, 1), padding=(1, 1))
            )
          )
          (attn): ModuleList()
          (downsample): Downsample(
            (conv): Conv2d(256, 256, kernel_size=(3, 3), stride=(2, 2))
          )
        )
        (2): Module(
          (block): ModuleList(
            (0): ResnetBlock(
              (norm1): GroupNorm(32, 256, eps=1e-06, affine=True)
              (conv1): Conv2d(256, 512, kernel_size=(3, 3), stride=(1, 1), padding=(1, 1))
              (norm2): GroupNorm(32, 512, eps=1e-06, affine=True)
              (dropout): Dropout(p=0.0, inplace=False)
              (conv2): Conv2d(512, 512, kernel_size=(3, 3), stride=(1, 1), padding=(1, 1))
              (nin_shortcut): Conv2d(256, 512, kernel_size=(1, 1), stride=(1, 1))
            )
            (1): ResnetBlock(
              (norm1): GroupNorm(32, 512, eps=1e-06, affine=True)
              (conv1): Conv2d(512, 512, kernel_size=(3, 3), stride=(1, 1), padding=(1, 1))
              (norm2): GroupNorm(32, 512, eps=1e-06, affine=True)
              (dropout): Dropout(p=0.0, inplace=False)
              (conv2): Conv2d(512, 512, kernel_size=(3, 3), stride=(1, 1), padding=(1, 1))
            )
          )
          (attn): ModuleList()
          (downsample): Downsample(
            (conv): Conv2d(512, 512, kernel_size=(3, 3), stride=(2, 2))
          )
        )
        (3): Module(
          (block): ModuleList(
            (0): ResnetBlock(
              (norm1): GroupNorm(32, 512, eps=1e-06, affine=True)
              (conv1): Conv2d(512, 512, kernel_size=(3, 3), stride=(1, 1), padding=(1, 1))
              (norm2): GroupNorm(32, 512, eps=1e-06, affine=True)
              (dropout): Dropout(p=0.0, inplace=False)
              (conv2): Conv2d(512, 512, kernel_size=(3, 3), stride=(1, 1), padding=(1, 1))
            )
            (1): ResnetBlock(
              (norm1): GroupNorm(32, 512, eps=1e-06, affine=True)
              (conv1): Conv2d(512, 512, kernel_size=(3, 3), stride=(1, 1), padding=(1, 1))
              (norm2): GroupNorm(32, 512, eps=1e-06, affine=True)
              (dropout): Dropout(p=0.0, inplace=False)
              (conv2): Conv2d(512, 512, kernel_size=(3, 3), stride=(1, 1), padding=(1, 1))
            )
          )
          (attn): ModuleList()
        )
      )
      (mid): Module(
        (block_1): ResnetBlock(
          (norm1): GroupNorm(32, 512, eps=1e-06, affine=True)
          (conv1): Conv2d(512, 512, kernel_size=(3, 3), stride=(1, 1), padding=(1, 1))
          (norm2): GroupNorm(32, 512, eps=1e-06, affine=True)
          (dropout): Dropout(p=0.0, inplace=False)
          (conv2): Conv2d(512, 512, kernel_size=(3, 3), stride=(1, 1), padding=(1, 1))
        )
        (attn_1): AttnBlock(
          (norm): GroupNorm(32, 512, eps=1e-06, affine=True)
          (q): Conv2d(512, 512, kernel_size=(1, 1), stride=(1, 1))
          (k): Conv2d(512, 512, kernel_size=(1, 1), stride=(1, 1))
          (v): Conv2d(512, 512, kernel_size=(1, 1), stride=(1, 1))
          (proj_out): Conv2d(512, 512, kernel_size=(1, 1), stride=(1, 1))
        )
        (block_2): ResnetBlock(
          (norm1): GroupNorm(32, 512, eps=1e-06, affine=True)
          (conv1): Conv2d(512, 512, kernel_size=(3, 3), stride=(1, 1), padding=(1, 1))
          (norm2): GroupNorm(32, 512, eps=1e-06, affine=True)
          (dropout): Dropout(p=0.0, inplace=False)
          (conv2): Conv2d(512, 512, kernel_size=(3, 3), stride=(1, 1), padding=(1, 1))
        )
      )
      (norm_out): GroupNorm(32, 512, eps=1e-06, affine=True)
      (conv_out): Conv2d(512, 8, kernel_size=(3, 3), stride=(1, 1), padding=(1, 1))
    )
    (loss): Identity()
    (quant_conv): Conv2d(8, 8, kernel_size=(1, 1), stride=(1, 1))
    (post_quant_conv): Conv2d(4, 4, kernel_size=(1, 1), stride=(1, 1))
  )
  (unet): UNetWrapper(
    (unet): DiffusionWrapper(
      (diffusion_model): UNetModel(
        (time_embed): Sequential(
          (0): Linear(in_features=320, out_features=1280, bias=True)
          (1): SiLU()
          (2): Linear(in_features=1280, out_features=1280, bias=True)
        )
        (input_blocks): ModuleList(
          (0): TimestepEmbedSequential(
            (0): Conv2d(4, 320, kernel_size=(3, 3), stride=(1, 1), padding=(1, 1))
          )
          (1): TimestepEmbedSequential(
            (0): ResBlock(
              (in_layers): Sequential(
                (0): GroupNorm32(32, 320, eps=1e-05, affine=True)
                (1): SiLU()
                (2): Conv2d(320, 320, kernel_size=(3, 3), stride=(1, 1), padding=(1, 1))
              )
              (h_upd): Identity()
              (x_upd): Identity()
              (emb_layers): Sequential(
                (0): SiLU()
                (1): Linear(in_features=1280, out_features=320, bias=True)
              )
              (out_layers): Sequential(
                (0): GroupNorm32(32, 320, eps=1e-05, affine=True)
                (1): SiLU()
                (2): Dropout(p=0, inplace=False)
                (3): Conv2d(320, 320, kernel_size=(3, 3), stride=(1, 1), padding=(1, 1))
              )
              (skip_connection): Identity()
            )
            (1): SpatialTransformer(
              (norm): GroupNorm(32, 320, eps=1e-06, affine=True)
              (proj_in): Conv2d(320, 320, kernel_size=(1, 1), stride=(1, 1))
              (transformer_blocks): ModuleList(
                (0): BasicTransformerBlock(
                  (attn1): CrossAttention(
                    (to_q): Linear(in_features=320, out_features=320, bias=False)
                    (to_k): Linear(in_features=320, out_features=320, bias=False)
                    (to_v): Linear(in_features=320, out_features=320, bias=False)
                    (to_out): Sequential(
                      (0): Linear(in_features=320, out_features=320, bias=True)
                      (1): Dropout(p=0.0, inplace=False)
                    )
                  )
                  (ff): FeedForward(
                    (net): Sequential(
                      (0): GEGLU(
                        (proj): Linear(in_features=320, out_features=2560, bias=True)
                      )
                      (1): Dropout(p=0.0, inplace=False)
                      (2): Linear(in_features=1280, out_features=320, bias=True)
                    )
                  )
                  (attn2): CrossAttention(
                    (to_q): Linear(in_features=320, out_features=320, bias=False)
                    (to_k): Linear(in_features=768, out_features=320, bias=False)
                    (to_v): Linear(in_features=768, out_features=320, bias=False)
                    (to_out): Sequential(
                      (0): Linear(in_features=320, out_features=320, bias=True)
                      (1): Dropout(p=0.0, inplace=False)
                    )
                  )
                  (norm1): LayerNorm((320,), eps=1e-05, elementwise_affine=True)
                  (norm2): LayerNorm((320,), eps=1e-05, elementwise_affine=True)
                  (norm3): LayerNorm((320,), eps=1e-05, elementwise_affine=True)
                )
              )
              (proj_out): Conv2d(320, 320, kernel_size=(1, 1), stride=(1, 1))
            )
          )
          (2): TimestepEmbedSequential(
            (0): ResBlock(
              (in_layers): Sequential(
                (0): GroupNorm32(32, 320, eps=1e-05, affine=True)
                (1): SiLU()
                (2): Conv2d(320, 320, kernel_size=(3, 3), stride=(1, 1), padding=(1, 1))
              )
              (h_upd): Identity()
              (x_upd): Identity()
              (emb_layers): Sequential(
                (0): SiLU()
                (1): Linear(in_features=1280, out_features=320, bias=True)
              )
              (out_layers): Sequential(
                (0): GroupNorm32(32, 320, eps=1e-05, affine=True)
                (1): SiLU()
                (2): Dropout(p=0, inplace=False)
                (3): Conv2d(320, 320, kernel_size=(3, 3), stride=(1, 1), padding=(1, 1))
              )
              (skip_connection): Identity()
            )
            (1): SpatialTransformer(
              (norm): GroupNorm(32, 320, eps=1e-06, affine=True)
              (proj_in): Conv2d(320, 320, kernel_size=(1, 1), stride=(1, 1))
              (transformer_blocks): ModuleList(
                (0): BasicTransformerBlock(
                  (attn1): CrossAttention(
                    (to_q): Linear(in_features=320, out_features=320, bias=False)
                    (to_k): Linear(in_features=320, out_features=320, bias=False)
                    (to_v): Linear(in_features=320, out_features=320, bias=False)
                    (to_out): Sequential(
                      (0): Linear(in_features=320, out_features=320, bias=True)
                      (1): Dropout(p=0.0, inplace=False)
                    )
                  )
                  (ff): FeedForward(
                    (net): Sequential(
                      (0): GEGLU(
                        (proj): Linear(in_features=320, out_features=2560, bias=True)
                      )
                      (1): Dropout(p=0.0, inplace=False)
                      (2): Linear(in_features=1280, out_features=320, bias=True)
                    )
                  )
                  (attn2): CrossAttention(
                    (to_q): Linear(in_features=320, out_features=320, bias=False)
                    (to_k): Linear(in_features=768, out_features=320, bias=False)
                    (to_v): Linear(in_features=768, out_features=320, bias=False)
                    (to_out): Sequential(
                      (0): Linear(in_features=320, out_features=320, bias=True)
                      (1): Dropout(p=0.0, inplace=False)
                    )
                  )
                  (norm1): LayerNorm((320,), eps=1e-05, elementwise_affine=True)
                  (norm2): LayerNorm((320,), eps=1e-05, elementwise_affine=True)
                  (norm3): LayerNorm((320,), eps=1e-05, elementwise_affine=True)
                )
              )
              (proj_out): Conv2d(320, 320, kernel_size=(1, 1), stride=(1, 1))
            )
          )
          (3): TimestepEmbedSequential(
            (0): Downsample(
              (op): Conv2d(320, 320, kernel_size=(3, 3), stride=(2, 2), padding=(1, 1))
            )
          )
          (4): TimestepEmbedSequential(
            (0): ResBlock(
              (in_layers): Sequential(
                (0): GroupNorm32(32, 320, eps=1e-05, affine=True)
                (1): SiLU()
                (2): Conv2d(320, 640, kernel_size=(3, 3), stride=(1, 1), padding=(1, 1))
              )
              (h_upd): Identity()
              (x_upd): Identity()
              (emb_layers): Sequential(
                (0): SiLU()
                (1): Linear(in_features=1280, out_features=640, bias=True)
              )
              (out_layers): Sequential(
                (0): GroupNorm32(32, 640, eps=1e-05, affine=True)
                (1): SiLU()
                (2): Dropout(p=0, inplace=False)
                (3): Conv2d(640, 640, kernel_size=(3, 3), stride=(1, 1), padding=(1, 1))
              )
              (skip_connection): Conv2d(320, 640, kernel_size=(1, 1), stride=(1, 1))
            )
            (1): SpatialTransformer(
              (norm): GroupNorm(32, 640, eps=1e-06, affine=True)
              (proj_in): Conv2d(640, 640, kernel_size=(1, 1), stride=(1, 1))
              (transformer_blocks): ModuleList(
                (0): BasicTransformerBlock(
                  (attn1): CrossAttention(
                    (to_q): Linear(in_features=640, out_features=640, bias=False)
                    (to_k): Linear(in_features=640, out_features=640, bias=False)
                    (to_v): Linear(in_features=640, out_features=640, bias=False)
                    (to_out): Sequential(
                      (0): Linear(in_features=640, out_features=640, bias=True)
                      (1): Dropout(p=0.0, inplace=False)
                    )
                  )
                  (ff): FeedForward(
                    (net): Sequential(
                      (0): GEGLU(
                        (proj): Linear(in_features=640, out_features=5120, bias=True)
                      )
                      (1): Dropout(p=0.0, inplace=False)
                      (2): Linear(in_features=2560, out_features=640, bias=True)
                    )
                  )
                  (attn2): CrossAttention(
                    (to_q): Linear(in_features=640, out_features=640, bias=False)
                    (to_k): Linear(in_features=768, out_features=640, bias=False)
                    (to_v): Linear(in_features=768, out_features=640, bias=False)
                    (to_out): Sequential(
                      (0): Linear(in_features=640, out_features=640, bias=True)
                      (1): Dropout(p=0.0, inplace=False)
                    )
                  )
                  (norm1): LayerNorm((640,), eps=1e-05, elementwise_affine=True)
                  (norm2): LayerNorm((640,), eps=1e-05, elementwise_affine=True)
                  (norm3): LayerNorm((640,), eps=1e-05, elementwise_affine=True)
                )
              )
              (proj_out): Conv2d(640, 640, kernel_size=(1, 1), stride=(1, 1))
            )
          )
          (5): TimestepEmbedSequential(
            (0): ResBlock(
              (in_layers): Sequential(
                (0): GroupNorm32(32, 640, eps=1e-05, affine=True)
                (1): SiLU()
                (2): Conv2d(640, 640, kernel_size=(3, 3), stride=(1, 1), padding=(1, 1))
              )
              (h_upd): Identity()
              (x_upd): Identity()
              (emb_layers): Sequential(
                (0): SiLU()
                (1): Linear(in_features=1280, out_features=640, bias=True)
              )
              (out_layers): Sequential(
                (0): GroupNorm32(32, 640, eps=1e-05, affine=True)
                (1): SiLU()
                (2): Dropout(p=0, inplace=False)
                (3): Conv2d(640, 640, kernel_size=(3, 3), stride=(1, 1), padding=(1, 1))
              )
              (skip_connection): Identity()
            )
            (1): SpatialTransformer(
              (norm): GroupNorm(32, 640, eps=1e-06, affine=True)
              (proj_in): Conv2d(640, 640, kernel_size=(1, 1), stride=(1, 1))
              (transformer_blocks): ModuleList(
                (0): BasicTransformerBlock(
                  (attn1): CrossAttention(
                    (to_q): Linear(in_features=640, out_features=640, bias=False)
                    (to_k): Linear(in_features=640, out_features=640, bias=False)
                    (to_v): Linear(in_features=640, out_features=640, bias=False)
                    (to_out): Sequential(
                      (0): Linear(in_features=640, out_features=640, bias=True)
                      (1): Dropout(p=0.0, inplace=False)
                    )
                  )
                  (ff): FeedForward(
                    (net): Sequential(
                      (0): GEGLU(
                        (proj): Linear(in_features=640, out_features=5120, bias=True)
                      )
                      (1): Dropout(p=0.0, inplace=False)
                      (2): Linear(in_features=2560, out_features=640, bias=True)
                    )
                  )
                  (attn2): CrossAttention(
                    (to_q): Linear(in_features=640, out_features=640, bias=False)
                    (to_k): Linear(in_features=768, out_features=640, bias=False)
                    (to_v): Linear(in_features=768, out_features=640, bias=False)
                    (to_out): Sequential(
                      (0): Linear(in_features=640, out_features=640, bias=True)
                      (1): Dropout(p=0.0, inplace=False)
                    )
                  )
                  (norm1): LayerNorm((640,), eps=1e-05, elementwise_affine=True)
                  (norm2): LayerNorm((640,), eps=1e-05, elementwise_affine=True)
                  (norm3): LayerNorm((640,), eps=1e-05, elementwise_affine=True)
                )
              )
              (proj_out): Conv2d(640, 640, kernel_size=(1, 1), stride=(1, 1))
            )
          )
          (6): TimestepEmbedSequential(
            (0): Downsample(
              (op): Conv2d(640, 640, kernel_size=(3, 3), stride=(2, 2), padding=(1, 1))
            )
          )
          (7): TimestepEmbedSequential(
            (0): ResBlock(
              (in_layers): Sequential(
                (0): GroupNorm32(32, 640, eps=1e-05, affine=True)
                (1): SiLU()
                (2): Conv2d(640, 1280, kernel_size=(3, 3), stride=(1, 1), padding=(1, 1))
              )
              (h_upd): Identity()
              (x_upd): Identity()
              (emb_layers): Sequential(
                (0): SiLU()
                (1): Linear(in_features=1280, out_features=1280, bias=True)
              )
              (out_layers): Sequential(
                (0): GroupNorm32(32, 1280, eps=1e-05, affine=True)
                (1): SiLU()
                (2): Dropout(p=0, inplace=False)
                (3): Conv2d(1280, 1280, kernel_size=(3, 3), stride=(1, 1), padding=(1, 1))
              )
              (skip_connection): Conv2d(640, 1280, kernel_size=(1, 1), stride=(1, 1))
            )
            (1): SpatialTransformer(
              (norm): GroupNorm(32, 1280, eps=1e-06, affine=True)
              (proj_in): Conv2d(1280, 1280, kernel_size=(1, 1), stride=(1, 1))
              (transformer_blocks): ModuleList(
                (0): BasicTransformerBlock(
                  (attn1): CrossAttention(
                    (to_q): Linear(in_features=1280, out_features=1280, bias=False)
                    (to_k): Linear(in_features=1280, out_features=1280, bias=False)
                    (to_v): Linear(in_features=1280, out_features=1280, bias=False)
                    (to_out): Sequential(
                      (0): Linear(in_features=1280, out_features=1280, bias=True)
                      (1): Dropout(p=0.0, inplace=False)
                    )
                  )
                  (ff): FeedForward(
                    (net): Sequential(
                      (0): GEGLU(
                        (proj): Linear(in_features=1280, out_features=10240, bias=True)
                      )
                      (1): Dropout(p=0.0, inplace=False)
                      (2): Linear(in_features=5120, out_features=1280, bias=True)
                    )
                  )
                  (attn2): CrossAttention(
                    (to_q): Linear(in_features=1280, out_features=1280, bias=False)
                    (to_k): Linear(in_features=768, out_features=1280, bias=False)
                    (to_v): Linear(in_features=768, out_features=1280, bias=False)
                    (to_out): Sequential(
                      (0): Linear(in_features=1280, out_features=1280, bias=True)
                      (1): Dropout(p=0.0, inplace=False)
                    )
                  )
                  (norm1): LayerNorm((1280,), eps=1e-05, elementwise_affine=True)
                  (norm2): LayerNorm((1280,), eps=1e-05, elementwise_affine=True)
                  (norm3): LayerNorm((1280,), eps=1e-05, elementwise_affine=True)
                )
              )
              (proj_out): Conv2d(1280, 1280, kernel_size=(1, 1), stride=(1, 1))
            )
          )
          (8): TimestepEmbedSequential(
            (0): ResBlock(
              (in_layers): Sequential(
                (0): GroupNorm32(32, 1280, eps=1e-05, affine=True)
                (1): SiLU()
                (2): Conv2d(1280, 1280, kernel_size=(3, 3), stride=(1, 1), padding=(1, 1))
              )
              (h_upd): Identity()
              (x_upd): Identity()
              (emb_layers): Sequential(
                (0): SiLU()
                (1): Linear(in_features=1280, out_features=1280, bias=True)
              )
              (out_layers): Sequential(
                (0): GroupNorm32(32, 1280, eps=1e-05, affine=True)
                (1): SiLU()
                (2): Dropout(p=0, inplace=False)
                (3): Conv2d(1280, 1280, kernel_size=(3, 3), stride=(1, 1), padding=(1, 1))
              )
              (skip_connection): Identity()
            )
            (1): SpatialTransformer(
              (norm): GroupNorm(32, 1280, eps=1e-06, affine=True)
              (proj_in): Conv2d(1280, 1280, kernel_size=(1, 1), stride=(1, 1))
              (transformer_blocks): ModuleList(
                (0): BasicTransformerBlock(
                  (attn1): CrossAttention(
                    (to_q): Linear(in_features=1280, out_features=1280, bias=False)
                    (to_k): Linear(in_features=1280, out_features=1280, bias=False)
                    (to_v): Linear(in_features=1280, out_features=1280, bias=False)
                    (to_out): Sequential(
                      (0): Linear(in_features=1280, out_features=1280, bias=True)
                      (1): Dropout(p=0.0, inplace=False)
                    )
                  )
                  (ff): FeedForward(
                    (net): Sequential(
                      (0): GEGLU(
                        (proj): Linear(in_features=1280, out_features=10240, bias=True)
                      )
                      (1): Dropout(p=0.0, inplace=False)
                      (2): Linear(in_features=5120, out_features=1280, bias=True)
                    )
                  )
                  (attn2): CrossAttention(
                    (to_q): Linear(in_features=1280, out_features=1280, bias=False)
                    (to_k): Linear(in_features=768, out_features=1280, bias=False)
                    (to_v): Linear(in_features=768, out_features=1280, bias=False)
                    (to_out): Sequential(
                      (0): Linear(in_features=1280, out_features=1280, bias=True)
                      (1): Dropout(p=0.0, inplace=False)
                    )
                  )
                  (norm1): LayerNorm((1280,), eps=1e-05, elementwise_affine=True)
                  (norm2): LayerNorm((1280,), eps=1e-05, elementwise_affine=True)
                  (norm3): LayerNorm((1280,), eps=1e-05, elementwise_affine=True)
                )
              )
              (proj_out): Conv2d(1280, 1280, kernel_size=(1, 1), stride=(1, 1))
            )
          )
          (9): TimestepEmbedSequential(
            (0): Downsample(
              (op): Conv2d(1280, 1280, kernel_size=(3, 3), stride=(2, 2), padding=(1, 1))
            )
          )
          (10): TimestepEmbedSequential(
            (0): ResBlock(
              (in_layers): Sequential(
                (0): GroupNorm32(32, 1280, eps=1e-05, affine=True)
                (1): SiLU()
                (2): Conv2d(1280, 1280, kernel_size=(3, 3), stride=(1, 1), padding=(1, 1))
              )
              (h_upd): Identity()
              (x_upd): Identity()
              (emb_layers): Sequential(
                (0): SiLU()
                (1): Linear(in_features=1280, out_features=1280, bias=True)
              )
              (out_layers): Sequential(
                (0): GroupNorm32(32, 1280, eps=1e-05, affine=True)
                (1): SiLU()
                (2): Dropout(p=0, inplace=False)
                (3): Conv2d(1280, 1280, kernel_size=(3, 3), stride=(1, 1), padding=(1, 1))
              )
              (skip_connection): Identity()
            )
          )
          (11): TimestepEmbedSequential(
            (0): ResBlock(
              (in_layers): Sequential(
                (0): GroupNorm32(32, 1280, eps=1e-05, affine=True)
                (1): SiLU()
                (2): Conv2d(1280, 1280, kernel_size=(3, 3), stride=(1, 1), padding=(1, 1))
              )
              (h_upd): Identity()
              (x_upd): Identity()
              (emb_layers): Sequential(
                (0): SiLU()
                (1): Linear(in_features=1280, out_features=1280, bias=True)
              )
              (out_layers): Sequential(
                (0): GroupNorm32(32, 1280, eps=1e-05, affine=True)
                (1): SiLU()
                (2): Dropout(p=0, inplace=False)
                (3): Conv2d(1280, 1280, kernel_size=(3, 3), stride=(1, 1), padding=(1, 1))
              )
              (skip_connection): Identity()
            )
          )
        )
        (middle_block): TimestepEmbedSequential(
          (0): ResBlock(
            (in_layers): Sequential(
              (0): GroupNorm32(32, 1280, eps=1e-05, affine=True)
              (1): SiLU()
              (2): Conv2d(1280, 1280, kernel_size=(3, 3), stride=(1, 1), padding=(1, 1))
            )
            (h_upd): Identity()
            (x_upd): Identity()
            (emb_layers): Sequential(
              (0): SiLU()
              (1): Linear(in_features=1280, out_features=1280, bias=True)
            )
            (out_layers): Sequential(
              (0): GroupNorm32(32, 1280, eps=1e-05, affine=True)
              (1): SiLU()
              (2): Dropout(p=0, inplace=False)
              (3): Conv2d(1280, 1280, kernel_size=(3, 3), stride=(1, 1), padding=(1, 1))
            )
            (skip_connection): Identity()
          )
          (1): SpatialTransformer(
            (norm): GroupNorm(32, 1280, eps=1e-06, affine=True)
            (proj_in): Conv2d(1280, 1280, kernel_size=(1, 1), stride=(1, 1))
            (transformer_blocks): ModuleList(
              (0): BasicTransformerBlock(
                (attn1): CrossAttention(
                  (to_q): Linear(in_features=1280, out_features=1280, bias=False)
                  (to_k): Linear(in_features=1280, out_features=1280, bias=False)
                  (to_v): Linear(in_features=1280, out_features=1280, bias=False)
                  (to_out): Sequential(
                    (0): Linear(in_features=1280, out_features=1280, bias=True)
                    (1): Dropout(p=0.0, inplace=False)
                  )
                )
                (ff): FeedForward(
                  (net): Sequential(
                    (0): GEGLU(
                      (proj): Linear(in_features=1280, out_features=10240, bias=True)
                    )
                    (1): Dropout(p=0.0, inplace=False)
                    (2): Linear(in_features=5120, out_features=1280, bias=True)
                  )
                )
                (attn2): CrossAttention(
                  (to_q): Linear(in_features=1280, out_features=1280, bias=False)
                  (to_k): Linear(in_features=768, out_features=1280, bias=False)
                  (to_v): Linear(in_features=768, out_features=1280, bias=False)
                  (to_out): Sequential(
                    (0): Linear(in_features=1280, out_features=1280, bias=True)
                    (1): Dropout(p=0.0, inplace=False)
                  )
                )
                (norm1): LayerNorm((1280,), eps=1e-05, elementwise_affine=True)
                (norm2): LayerNorm((1280,), eps=1e-05, elementwise_affine=True)
                (norm3): LayerNorm((1280,), eps=1e-05, elementwise_affine=True)
              )
            )
            (proj_out): Conv2d(1280, 1280, kernel_size=(1, 1), stride=(1, 1))
          )
          (2): ResBlock(
            (in_layers): Sequential(
              (0): GroupNorm32(32, 1280, eps=1e-05, affine=True)
              (1): SiLU()
              (2): Conv2d(1280, 1280, kernel_size=(3, 3), stride=(1, 1), padding=(1, 1))
            )
            (h_upd): Identity()
            (x_upd): Identity()
            (emb_layers): Sequential(
              (0): SiLU()
              (1): Linear(in_features=1280, out_features=1280, bias=True)
            )
            (out_layers): Sequential(
              (0): GroupNorm32(32, 1280, eps=1e-05, affine=True)
              (1): SiLU()
              (2): Dropout(p=0, inplace=False)
              (3): Conv2d(1280, 1280, kernel_size=(3, 3), stride=(1, 1), padding=(1, 1))
            )
            (skip_connection): Identity()
          )
        )
        (output_blocks): ModuleList(
          (0): TimestepEmbedSequential(
            (0): ResBlock(
              (in_layers): Sequential(
                (0): GroupNorm32(32, 2560, eps=1e-05, affine=True)
                (1): SiLU()
                (2): Conv2d(2560, 1280, kernel_size=(3, 3), stride=(1, 1), padding=(1, 1))
              )
              (h_upd): Identity()
              (x_upd): Identity()
              (emb_layers): Sequential(
                (0): SiLU()
                (1): Linear(in_features=1280, out_features=1280, bias=True)
              )
              (out_layers): Sequential(
                (0): GroupNorm32(32, 1280, eps=1e-05, affine=True)
                (1): SiLU()
                (2): Dropout(p=0, inplace=False)
                (3): Conv2d(1280, 1280, kernel_size=(3, 3), stride=(1, 1), padding=(1, 1))
              )
              (skip_connection): Conv2d(2560, 1280, kernel_size=(1, 1), stride=(1, 1))
            )
          )
          (1): TimestepEmbedSequential(
            (0): ResBlock(
              (in_layers): Sequential(
                (0): GroupNorm32(32, 2560, eps=1e-05, affine=True)
                (1): SiLU()
                (2): Conv2d(2560, 1280, kernel_size=(3, 3), stride=(1, 1), padding=(1, 1))
              )
              (h_upd): Identity()
              (x_upd): Identity()
              (emb_layers): Sequential(
                (0): SiLU()
                (1): Linear(in_features=1280, out_features=1280, bias=True)
              )
              (out_layers): Sequential(
                (0): GroupNorm32(32, 1280, eps=1e-05, affine=True)
                (1): SiLU()
                (2): Dropout(p=0, inplace=False)
                (3): Conv2d(1280, 1280, kernel_size=(3, 3), stride=(1, 1), padding=(1, 1))
              )
              (skip_connection): Conv2d(2560, 1280, kernel_size=(1, 1), stride=(1, 1))
            )
          )
          (2): TimestepEmbedSequential(
            (0): ResBlock(
              (in_layers): Sequential(
                (0): GroupNorm32(32, 2560, eps=1e-05, affine=True)
                (1): SiLU()
                (2): Conv2d(2560, 1280, kernel_size=(3, 3), stride=(1, 1), padding=(1, 1))
              )
              (h_upd): Identity()
              (x_upd): Identity()
              (emb_layers): Sequential(
                (0): SiLU()
                (1): Linear(in_features=1280, out_features=1280, bias=True)
              )
              (out_layers): Sequential(
                (0): GroupNorm32(32, 1280, eps=1e-05, affine=True)
                (1): SiLU()
                (2): Dropout(p=0, inplace=False)
                (3): Conv2d(1280, 1280, kernel_size=(3, 3), stride=(1, 1), padding=(1, 1))
              )
              (skip_connection): Conv2d(2560, 1280, kernel_size=(1, 1), stride=(1, 1))
            )
            (1): Upsample(
              (conv): Conv2d(1280, 1280, kernel_size=(3, 3), stride=(1, 1), padding=(1, 1))
            )
          )
          (3): TimestepEmbedSequential(
            (0): ResBlock(
              (in_layers): Sequential(
                (0): GroupNorm32(32, 2560, eps=1e-05, affine=True)
                (1): SiLU()
                (2): Conv2d(2560, 1280, kernel_size=(3, 3), stride=(1, 1), padding=(1, 1))
              )
              (h_upd): Identity()
              (x_upd): Identity()
              (emb_layers): Sequential(
                (0): SiLU()
                (1): Linear(in_features=1280, out_features=1280, bias=True)
              )
              (out_layers): Sequential(
                (0): GroupNorm32(32, 1280, eps=1e-05, affine=True)
                (1): SiLU()
                (2): Dropout(p=0, inplace=False)
                (3): Conv2d(1280, 1280, kernel_size=(3, 3), stride=(1, 1), padding=(1, 1))
              )
              (skip_connection): Conv2d(2560, 1280, kernel_size=(1, 1), stride=(1, 1))
            )
            (1): SpatialTransformer(
              (norm): GroupNorm(32, 1280, eps=1e-06, affine=True)
              (proj_in): Conv2d(1280, 1280, kernel_size=(1, 1), stride=(1, 1))
              (transformer_blocks): ModuleList(
                (0): BasicTransformerBlock(
                  (attn1): CrossAttention(
                    (to_q): Linear(in_features=1280, out_features=1280, bias=False)
                    (to_k): Linear(in_features=1280, out_features=1280, bias=False)
                    (to_v): Linear(in_features=1280, out_features=1280, bias=False)
                    (to_out): Sequential(
                      (0): Linear(in_features=1280, out_features=1280, bias=True)
                      (1): Dropout(p=0.0, inplace=False)
                    )
                  )
                  (ff): FeedForward(
                    (net): Sequential(
                      (0): GEGLU(
                        (proj): Linear(in_features=1280, out_features=10240, bias=True)
                      )
                      (1): Dropout(p=0.0, inplace=False)
                      (2): Linear(in_features=5120, out_features=1280, bias=True)
                    )
                  )
                  (attn2): CrossAttention(
                    (to_q): Linear(in_features=1280, out_features=1280, bias=False)
                    (to_k): Linear(in_features=768, out_features=1280, bias=False)
                    (to_v): Linear(in_features=768, out_features=1280, bias=False)
                    (to_out): Sequential(
                      (0): Linear(in_features=1280, out_features=1280, bias=True)
                      (1): Dropout(p=0.0, inplace=False)
                    )
                  )
                  (norm1): LayerNorm((1280,), eps=1e-05, elementwise_affine=True)
                  (norm2): LayerNorm((1280,), eps=1e-05, elementwise_affine=True)
                  (norm3): LayerNorm((1280,), eps=1e-05, elementwise_affine=True)
                )
              )
              (proj_out): Conv2d(1280, 1280, kernel_size=(1, 1), stride=(1, 1))
            )
          )
          (4): TimestepEmbedSequential(
            (0): ResBlock(
              (in_layers): Sequential(
                (0): GroupNorm32(32, 2560, eps=1e-05, affine=True)
                (1): SiLU()
                (2): Conv2d(2560, 1280, kernel_size=(3, 3), stride=(1, 1), padding=(1, 1))
              )
              (h_upd): Identity()
              (x_upd): Identity()
              (emb_layers): Sequential(
                (0): SiLU()
                (1): Linear(in_features=1280, out_features=1280, bias=True)
              )
              (out_layers): Sequential(
                (0): GroupNorm32(32, 1280, eps=1e-05, affine=True)
                (1): SiLU()
                (2): Dropout(p=0, inplace=False)
                (3): Conv2d(1280, 1280, kernel_size=(3, 3), stride=(1, 1), padding=(1, 1))
              )
              (skip_connection): Conv2d(2560, 1280, kernel_size=(1, 1), stride=(1, 1))
            )
            (1): SpatialTransformer(
              (norm): GroupNorm(32, 1280, eps=1e-06, affine=True)
              (proj_in): Conv2d(1280, 1280, kernel_size=(1, 1), stride=(1, 1))
              (transformer_blocks): ModuleList(
                (0): BasicTransformerBlock(
                  (attn1): CrossAttention(
                    (to_q): Linear(in_features=1280, out_features=1280, bias=False)
                    (to_k): Linear(in_features=1280, out_features=1280, bias=False)
                    (to_v): Linear(in_features=1280, out_features=1280, bias=False)
                    (to_out): Sequential(
                      (0): Linear(in_features=1280, out_features=1280, bias=True)
                      (1): Dropout(p=0.0, inplace=False)
                    )
                  )
                  (ff): FeedForward(
                    (net): Sequential(
                      (0): GEGLU(
                        (proj): Linear(in_features=1280, out_features=10240, bias=True)
                      )
                      (1): Dropout(p=0.0, inplace=False)
                      (2): Linear(in_features=5120, out_features=1280, bias=True)
                    )
                  )
                  (attn2): CrossAttention(
                    (to_q): Linear(in_features=1280, out_features=1280, bias=False)
                    (to_k): Linear(in_features=768, out_features=1280, bias=False)
                    (to_v): Linear(in_features=768, out_features=1280, bias=False)
                    (to_out): Sequential(
                      (0): Linear(in_features=1280, out_features=1280, bias=True)
                      (1): Dropout(p=0.0, inplace=False)
                    )
                  )
                  (norm1): LayerNorm((1280,), eps=1e-05, elementwise_affine=True)
                  (norm2): LayerNorm((1280,), eps=1e-05, elementwise_affine=True)
                  (norm3): LayerNorm((1280,), eps=1e-05, elementwise_affine=True)
                )
              )
              (proj_out): Conv2d(1280, 1280, kernel_size=(1, 1), stride=(1, 1))
            )
          )
          (5): TimestepEmbedSequential(
            (0): ResBlock(
              (in_layers): Sequential(
                (0): GroupNorm32(32, 1920, eps=1e-05, affine=True)
                (1): SiLU()
                (2): Conv2d(1920, 1280, kernel_size=(3, 3), stride=(1, 1), padding=(1, 1))
              )
              (h_upd): Identity()
              (x_upd): Identity()
              (emb_layers): Sequential(
                (0): SiLU()
                (1): Linear(in_features=1280, out_features=1280, bias=True)
              )
              (out_layers): Sequential(
                (0): GroupNorm32(32, 1280, eps=1e-05, affine=True)
                (1): SiLU()
                (2): Dropout(p=0, inplace=False)
                (3): Conv2d(1280, 1280, kernel_size=(3, 3), stride=(1, 1), padding=(1, 1))
              )
              (skip_connection): Conv2d(1920, 1280, kernel_size=(1, 1), stride=(1, 1))
            )
            (1): SpatialTransformer(
              (norm): GroupNorm(32, 1280, eps=1e-06, affine=True)
              (proj_in): Conv2d(1280, 1280, kernel_size=(1, 1), stride=(1, 1))
              (transformer_blocks): ModuleList(
                (0): BasicTransformerBlock(
                  (attn1): CrossAttention(
                    (to_q): Linear(in_features=1280, out_features=1280, bias=False)
                    (to_k): Linear(in_features=1280, out_features=1280, bias=False)
                    (to_v): Linear(in_features=1280, out_features=1280, bias=False)
                    (to_out): Sequential(
                      (0): Linear(in_features=1280, out_features=1280, bias=True)
                      (1): Dropout(p=0.0, inplace=False)
                    )
                  )
                  (ff): FeedForward(
                    (net): Sequential(
                      (0): GEGLU(
                        (proj): Linear(in_features=1280, out_features=10240, bias=True)
                      )
                      (1): Dropout(p=0.0, inplace=False)
                      (2): Linear(in_features=5120, out_features=1280, bias=True)
                    )
                  )
                  (attn2): CrossAttention(
                    (to_q): Linear(in_features=1280, out_features=1280, bias=False)
                    (to_k): Linear(in_features=768, out_features=1280, bias=False)
                    (to_v): Linear(in_features=768, out_features=1280, bias=False)
                    (to_out): Sequential(
                      (0): Linear(in_features=1280, out_features=1280, bias=True)
                      (1): Dropout(p=0.0, inplace=False)
                    )
                  )
                  (norm1): LayerNorm((1280,), eps=1e-05, elementwise_affine=True)
                  (norm2): LayerNorm((1280,), eps=1e-05, elementwise_affine=True)
                  (norm3): LayerNorm((1280,), eps=1e-05, elementwise_affine=True)
                )
              )
              (proj_out): Conv2d(1280, 1280, kernel_size=(1, 1), stride=(1, 1))
            )
            (2): Upsample(
              (conv): Conv2d(1280, 1280, kernel_size=(3, 3), stride=(1, 1), padding=(1, 1))
            )
          )
          (6): TimestepEmbedSequential(
            (0): ResBlock(
              (in_layers): Sequential(
                (0): GroupNorm32(32, 1920, eps=1e-05, affine=True)
                (1): SiLU()
                (2): Conv2d(1920, 640, kernel_size=(3, 3), stride=(1, 1), padding=(1, 1))
              )
              (h_upd): Identity()
              (x_upd): Identity()
              (emb_layers): Sequential(
                (0): SiLU()
                (1): Linear(in_features=1280, out_features=640, bias=True)
              )
              (out_layers): Sequential(
                (0): GroupNorm32(32, 640, eps=1e-05, affine=True)
                (1): SiLU()
                (2): Dropout(p=0, inplace=False)
                (3): Conv2d(640, 640, kernel_size=(3, 3), stride=(1, 1), padding=(1, 1))
              )
              (skip_connection): Conv2d(1920, 640, kernel_size=(1, 1), stride=(1, 1))
            )
            (1): SpatialTransformer(
              (norm): GroupNorm(32, 640, eps=1e-06, affine=True)
              (proj_in): Conv2d(640, 640, kernel_size=(1, 1), stride=(1, 1))
              (transformer_blocks): ModuleList(
                (0): BasicTransformerBlock(
                  (attn1): CrossAttention(
                    (to_q): Linear(in_features=640, out_features=640, bias=False)
                    (to_k): Linear(in_features=640, out_features=640, bias=False)
                    (to_v): Linear(in_features=640, out_features=640, bias=False)
                    (to_out): Sequential(
                      (0): Linear(in_features=640, out_features=640, bias=True)
                      (1): Dropout(p=0.0, inplace=False)
                    )
                  )
                  (ff): FeedForward(
                    (net): Sequential(
                      (0): GEGLU(
                        (proj): Linear(in_features=640, out_features=5120, bias=True)
                      )
                      (1): Dropout(p=0.0, inplace=False)
                      (2): Linear(in_features=2560, out_features=640, bias=True)
                    )
                  )
                  (attn2): CrossAttention(
                    (to_q): Linear(in_features=640, out_features=640, bias=False)
                    (to_k): Linear(in_features=768, out_features=640, bias=False)
                    (to_v): Linear(in_features=768, out_features=640, bias=False)
                    (to_out): Sequential(
                      (0): Linear(in_features=640, out_features=640, bias=True)
                      (1): Dropout(p=0.0, inplace=False)
                    )
                  )
                  (norm1): LayerNorm((640,), eps=1e-05, elementwise_affine=True)
                  (norm2): LayerNorm((640,), eps=1e-05, elementwise_affine=True)
                  (norm3): LayerNorm((640,), eps=1e-05, elementwise_affine=True)
                )
              )
              (proj_out): Conv2d(640, 640, kernel_size=(1, 1), stride=(1, 1))
            )
          )
          (7): TimestepEmbedSequential(
            (0): ResBlock(
              (in_layers): Sequential(
                (0): GroupNorm32(32, 1280, eps=1e-05, affine=True)
                (1): SiLU()
                (2): Conv2d(1280, 640, kernel_size=(3, 3), stride=(1, 1), padding=(1, 1))
              )
              (h_upd): Identity()
              (x_upd): Identity()
              (emb_layers): Sequential(
                (0): SiLU()
                (1): Linear(in_features=1280, out_features=640, bias=True)
              )
              (out_layers): Sequential(
                (0): GroupNorm32(32, 640, eps=1e-05, affine=True)
                (1): SiLU()
                (2): Dropout(p=0, inplace=False)
                (3): Conv2d(640, 640, kernel_size=(3, 3), stride=(1, 1), padding=(1, 1))
              )
              (skip_connection): Conv2d(1280, 640, kernel_size=(1, 1), stride=(1, 1))
            )
            (1): SpatialTransformer(
              (norm): GroupNorm(32, 640, eps=1e-06, affine=True)
              (proj_in): Conv2d(640, 640, kernel_size=(1, 1), stride=(1, 1))
              (transformer_blocks): ModuleList(
                (0): BasicTransformerBlock(
                  (attn1): CrossAttention(
                    (to_q): Linear(in_features=640, out_features=640, bias=False)
                    (to_k): Linear(in_features=640, out_features=640, bias=False)
                    (to_v): Linear(in_features=640, out_features=640, bias=False)
                    (to_out): Sequential(
                      (0): Linear(in_features=640, out_features=640, bias=True)
                      (1): Dropout(p=0.0, inplace=False)
                    )
                  )
                  (ff): FeedForward(
                    (net): Sequential(
                      (0): GEGLU(
                        (proj): Linear(in_features=640, out_features=5120, bias=True)
                      )
                      (1): Dropout(p=0.0, inplace=False)
                      (2): Linear(in_features=2560, out_features=640, bias=True)
                    )
                  )
                  (attn2): CrossAttention(
                    (to_q): Linear(in_features=640, out_features=640, bias=False)
                    (to_k): Linear(in_features=768, out_features=640, bias=False)
                    (to_v): Linear(in_features=768, out_features=640, bias=False)
                    (to_out): Sequential(
                      (0): Linear(in_features=640, out_features=640, bias=True)
                      (1): Dropout(p=0.0, inplace=False)
                    )
                  )
                  (norm1): LayerNorm((640,), eps=1e-05, elementwise_affine=True)
                  (norm2): LayerNorm((640,), eps=1e-05, elementwise_affine=True)
                  (norm3): LayerNorm((640,), eps=1e-05, elementwise_affine=True)
                )
              )
              (proj_out): Conv2d(640, 640, kernel_size=(1, 1), stride=(1, 1))
            )
          )
          (8): TimestepEmbedSequential(
            (0): ResBlock(
              (in_layers): Sequential(
                (0): GroupNorm32(32, 960, eps=1e-05, affine=True)
                (1): SiLU()
                (2): Conv2d(960, 640, kernel_size=(3, 3), stride=(1, 1), padding=(1, 1))
              )
              (h_upd): Identity()
              (x_upd): Identity()
              (emb_layers): Sequential(
                (0): SiLU()
                (1): Linear(in_features=1280, out_features=640, bias=True)
              )
              (out_layers): Sequential(
                (0): GroupNorm32(32, 640, eps=1e-05, affine=True)
                (1): SiLU()
                (2): Dropout(p=0, inplace=False)
                (3): Conv2d(640, 640, kernel_size=(3, 3), stride=(1, 1), padding=(1, 1))
              )
              (skip_connection): Conv2d(960, 640, kernel_size=(1, 1), stride=(1, 1))
            )
            (1): SpatialTransformer(
              (norm): GroupNorm(32, 640, eps=1e-06, affine=True)
              (proj_in): Conv2d(640, 640, kernel_size=(1, 1), stride=(1, 1))
              (transformer_blocks): ModuleList(
                (0): BasicTransformerBlock(
                  (attn1): CrossAttention(
                    (to_q): Linear(in_features=640, out_features=640, bias=False)
                    (to_k): Linear(in_features=640, out_features=640, bias=False)
                    (to_v): Linear(in_features=640, out_features=640, bias=False)
                    (to_out): Sequential(
                      (0): Linear(in_features=640, out_features=640, bias=True)
                      (1): Dropout(p=0.0, inplace=False)
                    )
                  )
                  (ff): FeedForward(
                    (net): Sequential(
                      (0): GEGLU(
                        (proj): Linear(in_features=640, out_features=5120, bias=True)
                      )
                      (1): Dropout(p=0.0, inplace=False)
                      (2): Linear(in_features=2560, out_features=640, bias=True)
                    )
                  )
                  (attn2): CrossAttention(
                    (to_q): Linear(in_features=640, out_features=640, bias=False)
                    (to_k): Linear(in_features=768, out_features=640, bias=False)
                    (to_v): Linear(in_features=768, out_features=640, bias=False)
                    (to_out): Sequential(
                      (0): Linear(in_features=640, out_features=640, bias=True)
                      (1): Dropout(p=0.0, inplace=False)
                    )
                  )
                  (norm1): LayerNorm((640,), eps=1e-05, elementwise_affine=True)
                  (norm2): LayerNorm((640,), eps=1e-05, elementwise_affine=True)
                  (norm3): LayerNorm((640,), eps=1e-05, elementwise_affine=True)
                )
              )
              (proj_out): Conv2d(640, 640, kernel_size=(1, 1), stride=(1, 1))
            )
            (2): Upsample(
              (conv): Conv2d(640, 640, kernel_size=(3, 3), stride=(1, 1), padding=(1, 1))
            )
          )
          (9): TimestepEmbedSequential(
            (0): ResBlock(
              (in_layers): Sequential(
                (0): GroupNorm32(32, 960, eps=1e-05, affine=True)
                (1): SiLU()
                (2): Conv2d(960, 320, kernel_size=(3, 3), stride=(1, 1), padding=(1, 1))
              )
              (h_upd): Identity()
              (x_upd): Identity()
              (emb_layers): Sequential(
                (0): SiLU()
                (1): Linear(in_features=1280, out_features=320, bias=True)
              )
              (out_layers): Sequential(
                (0): GroupNorm32(32, 320, eps=1e-05, affine=True)
                (1): SiLU()
                (2): Dropout(p=0, inplace=False)
                (3): Conv2d(320, 320, kernel_size=(3, 3), stride=(1, 1), padding=(1, 1))
              )
              (skip_connection): Conv2d(960, 320, kernel_size=(1, 1), stride=(1, 1))
            )
            (1): SpatialTransformer(
              (norm): GroupNorm(32, 320, eps=1e-06, affine=True)
              (proj_in): Conv2d(320, 320, kernel_size=(1, 1), stride=(1, 1))
              (transformer_blocks): ModuleList(
                (0): BasicTransformerBlock(
                  (attn1): CrossAttention(
                    (to_q): Linear(in_features=320, out_features=320, bias=False)
                    (to_k): Linear(in_features=320, out_features=320, bias=False)
                    (to_v): Linear(in_features=320, out_features=320, bias=False)
                    (to_out): Sequential(
                      (0): Linear(in_features=320, out_features=320, bias=True)
                      (1): Dropout(p=0.0, inplace=False)
                    )
                  )
                  (ff): FeedForward(
                    (net): Sequential(
                      (0): GEGLU(
                        (proj): Linear(in_features=320, out_features=2560, bias=True)
                      )
                      (1): Dropout(p=0.0, inplace=False)
                      (2): Linear(in_features=1280, out_features=320, bias=True)
                    )
                  )
                  (attn2): CrossAttention(
                    (to_q): Linear(in_features=320, out_features=320, bias=False)
                    (to_k): Linear(in_features=768, out_features=320, bias=False)
                    (to_v): Linear(in_features=768, out_features=320, bias=False)
                    (to_out): Sequential(
                      (0): Linear(in_features=320, out_features=320, bias=True)
                      (1): Dropout(p=0.0, inplace=False)
                    )
                  )
                  (norm1): LayerNorm((320,), eps=1e-05, elementwise_affine=True)
                  (norm2): LayerNorm((320,), eps=1e-05, elementwise_affine=True)
                  (norm3): LayerNorm((320,), eps=1e-05, elementwise_affine=True)
                )
              )
              (proj_out): Conv2d(320, 320, kernel_size=(1, 1), stride=(1, 1))
            )
          )
          (10): TimestepEmbedSequential(
            (0): ResBlock(
              (in_layers): Sequential(
                (0): GroupNorm32(32, 640, eps=1e-05, affine=True)
                (1): SiLU()
                (2): Conv2d(640, 320, kernel_size=(3, 3), stride=(1, 1), padding=(1, 1))
              )
              (h_upd): Identity()
              (x_upd): Identity()
              (emb_layers): Sequential(
                (0): SiLU()
                (1): Linear(in_features=1280, out_features=320, bias=True)
              )
              (out_layers): Sequential(
                (0): GroupNorm32(32, 320, eps=1e-05, affine=True)
                (1): SiLU()
                (2): Dropout(p=0, inplace=False)
                (3): Conv2d(320, 320, kernel_size=(3, 3), stride=(1, 1), padding=(1, 1))
              )
              (skip_connection): Conv2d(640, 320, kernel_size=(1, 1), stride=(1, 1))
            )
            (1): SpatialTransformer(
              (norm): GroupNorm(32, 320, eps=1e-06, affine=True)
              (proj_in): Conv2d(320, 320, kernel_size=(1, 1), stride=(1, 1))
              (transformer_blocks): ModuleList(
                (0): BasicTransformerBlock(
                  (attn1): CrossAttention(
                    (to_q): Linear(in_features=320, out_features=320, bias=False)
                    (to_k): Linear(in_features=320, out_features=320, bias=False)
                    (to_v): Linear(in_features=320, out_features=320, bias=False)
                    (to_out): Sequential(
                      (0): Linear(in_features=320, out_features=320, bias=True)
                      (1): Dropout(p=0.0, inplace=False)
                    )
                  )
                  (ff): FeedForward(
                    (net): Sequential(
                      (0): GEGLU(
                        (proj): Linear(in_features=320, out_features=2560, bias=True)
                      )
                      (1): Dropout(p=0.0, inplace=False)
                      (2): Linear(in_features=1280, out_features=320, bias=True)
                    )
                  )
                  (attn2): CrossAttention(
                    (to_q): Linear(in_features=320, out_features=320, bias=False)
                    (to_k): Linear(in_features=768, out_features=320, bias=False)
                    (to_v): Linear(in_features=768, out_features=320, bias=False)
                    (to_out): Sequential(
                      (0): Linear(in_features=320, out_features=320, bias=True)
                      (1): Dropout(p=0.0, inplace=False)
                    )
                  )
                  (norm1): LayerNorm((320,), eps=1e-05, elementwise_affine=True)
                  (norm2): LayerNorm((320,), eps=1e-05, elementwise_affine=True)
                  (norm3): LayerNorm((320,), eps=1e-05, elementwise_affine=True)
                )
              )
              (proj_out): Conv2d(320, 320, kernel_size=(1, 1), stride=(1, 1))
            )
          )
          (11): TimestepEmbedSequential(
            (0): ResBlock(
              (in_layers): Sequential(
                (0): GroupNorm32(32, 640, eps=1e-05, affine=True)
                (1): SiLU()
                (2): Conv2d(640, 320, kernel_size=(3, 3), stride=(1, 1), padding=(1, 1))
              )
              (h_upd): Identity()
              (x_upd): Identity()
              (emb_layers): Sequential(
                (0): SiLU()
                (1): Linear(in_features=1280, out_features=320, bias=True)
              )
              (out_layers): Sequential(
                (0): GroupNorm32(32, 320, eps=1e-05, affine=True)
                (1): SiLU()
                (2): Dropout(p=0, inplace=False)
                (3): Conv2d(320, 320, kernel_size=(3, 3), stride=(1, 1), padding=(1, 1))
              )
              (skip_connection): Conv2d(640, 320, kernel_size=(1, 1), stride=(1, 1))
            )
            (1): SpatialTransformer(
              (norm): GroupNorm(32, 320, eps=1e-06, affine=True)
              (proj_in): Conv2d(320, 320, kernel_size=(1, 1), stride=(1, 1))
              (transformer_blocks): ModuleList(
                (0): BasicTransformerBlock(
                  (attn1): CrossAttention(
                    (to_q): Linear(in_features=320, out_features=320, bias=False)
                    (to_k): Linear(in_features=320, out_features=320, bias=False)
                    (to_v): Linear(in_features=320, out_features=320, bias=False)
                    (to_out): Sequential(
                      (0): Linear(in_features=320, out_features=320, bias=True)
                      (1): Dropout(p=0.0, inplace=False)
                    )
                  )
                  (ff): FeedForward(
                    (net): Sequential(
                      (0): GEGLU(
                        (proj): Linear(in_features=320, out_features=2560, bias=True)
                      )
                      (1): Dropout(p=0.0, inplace=False)
                      (2): Linear(in_features=1280, out_features=320, bias=True)
                    )
                  )
                  (attn2): CrossAttention(
                    (to_q): Linear(in_features=320, out_features=320, bias=False)
                    (to_k): Linear(in_features=768, out_features=320, bias=False)
                    (to_v): Linear(in_features=768, out_features=320, bias=False)
                    (to_out): Sequential(
                      (0): Linear(in_features=320, out_features=320, bias=True)
                      (1): Dropout(p=0.0, inplace=False)
                    )
                  )
                  (norm1): LayerNorm((320,), eps=1e-05, elementwise_affine=True)
                  (norm2): LayerNorm((320,), eps=1e-05, elementwise_affine=True)
                  (norm3): LayerNorm((320,), eps=1e-05, elementwise_affine=True)
                )
              )
              (proj_out): Conv2d(320, 320, kernel_size=(1, 1), stride=(1, 1))
            )
          )
        )
        (out): Sequential(
          (0): GroupNorm32(32, 320, eps=1e-05, affine=True)
          (1): SiLU()
          (2): Conv2d(320, 4, kernel_size=(3, 3), stride=(1, 1), padding=(1, 1))
        )
      )
    )
    (trainable_unet): DiffusionWrapper(
      (diffusion_model): UNetModel(
        (time_embed): Sequential(
          (0): Linear(in_features=320, out_features=1280, bias=True)
          (1): SiLU()
          (2): Linear(in_features=1280, out_features=1280, bias=True)
        )
        (input_blocks): ModuleList(
          (0): TimestepEmbedSequential(
            (0): Conv2d(4, 320, kernel_size=(3, 3), stride=(1, 1), padding=(1, 1))
          )
          (1): TimestepEmbedSequential(
            (0): ResBlock(
              (in_layers): Sequential(
                (0): GroupNorm32(32, 320, eps=1e-05, affine=True)
                (1): SiLU()
                (2): Conv2d(320, 320, kernel_size=(3, 3), stride=(1, 1), padding=(1, 1))
              )
              (h_upd): Identity()
              (x_upd): Identity()
              (emb_layers): Sequential(
                (0): SiLU()
                (1): Linear(in_features=1280, out_features=320, bias=True)
              )
              (out_layers): Sequential(
                (0): GroupNorm32(32, 320, eps=1e-05, affine=True)
                (1): SiLU()
                (2): Dropout(p=0, inplace=False)
                (3): Conv2d(320, 320, kernel_size=(3, 3), stride=(1, 1), padding=(1, 1))
              )
              (skip_connection): Identity()
            )
            (1): SpatialTransformer(
              (norm): GroupNorm(32, 320, eps=1e-06, affine=True)
              (proj_in): Conv2d(320, 320, kernel_size=(1, 1), stride=(1, 1))
              (transformer_blocks): ModuleList(
                (0): BasicTransformerBlock(
                  (attn1): CrossAttention(
                    (to_q): Linear(in_features=320, out_features=320, bias=False)
                    (to_k): Linear(in_features=320, out_features=320, bias=False)
                    (to_v): Linear(in_features=320, out_features=320, bias=False)
                    (to_out): Sequential(
                      (0): Linear(in_features=320, out_features=320, bias=True)
                      (1): Dropout(p=0.0, inplace=False)
                    )
                  )
                  (ff): FeedForward(
                    (net): Sequential(
                      (0): GEGLU(
                        (proj): Linear(in_features=320, out_features=2560, bias=True)
                      )
                      (1): Dropout(p=0.0, inplace=False)
                      (2): Linear(in_features=1280, out_features=320, bias=True)
                    )
                  )
                  (attn2): CrossAttention(
                    (to_q): Linear(in_features=320, out_features=320, bias=False)
                    (to_k): Linear(in_features=768, out_features=320, bias=False)
                    (to_v): Linear(in_features=768, out_features=320, bias=False)
                    (to_out): Sequential(
                      (0): Linear(in_features=320, out_features=320, bias=True)
                      (1): Dropout(p=0.0, inplace=False)
                    )
                  )
                  (norm1): LayerNorm((320,), eps=1e-05, elementwise_affine=True)
                  (norm2): LayerNorm((320,), eps=1e-05, elementwise_affine=True)
                  (norm3): LayerNorm((320,), eps=1e-05, elementwise_affine=True)
                )
              )
              (proj_out): Conv2d(320, 320, kernel_size=(1, 1), stride=(1, 1))
            )
          )
          (2): TimestepEmbedSequential(
            (0): ResBlock(
              (in_layers): Sequential(
                (0): GroupNorm32(32, 320, eps=1e-05, affine=True)
                (1): SiLU()
                (2): Conv2d(320, 320, kernel_size=(3, 3), stride=(1, 1), padding=(1, 1))
              )
              (h_upd): Identity()
              (x_upd): Identity()
              (emb_layers): Sequential(
                (0): SiLU()
                (1): Linear(in_features=1280, out_features=320, bias=True)
              )
              (out_layers): Sequential(
                (0): GroupNorm32(32, 320, eps=1e-05, affine=True)
                (1): SiLU()
                (2): Dropout(p=0, inplace=False)
                (3): Conv2d(320, 320, kernel_size=(3, 3), stride=(1, 1), padding=(1, 1))
              )
              (skip_connection): Identity()
            )
            (1): SpatialTransformer(
              (norm): GroupNorm(32, 320, eps=1e-06, affine=True)
              (proj_in): Conv2d(320, 320, kernel_size=(1, 1), stride=(1, 1))
              (transformer_blocks): ModuleList(
                (0): BasicTransformerBlock(
                  (attn1): CrossAttention(
                    (to_q): Linear(in_features=320, out_features=320, bias=False)
                    (to_k): Linear(in_features=320, out_features=320, bias=False)
                    (to_v): Linear(in_features=320, out_features=320, bias=False)
                    (to_out): Sequential(
                      (0): Linear(in_features=320, out_features=320, bias=True)
                      (1): Dropout(p=0.0, inplace=False)
                    )
                  )
                  (ff): FeedForward(
                    (net): Sequential(
                      (0): GEGLU(
                        (proj): Linear(in_features=320, out_features=2560, bias=True)
                      )
                      (1): Dropout(p=0.0, inplace=False)
                      (2): Linear(in_features=1280, out_features=320, bias=True)
                    )
                  )
                  (attn2): CrossAttention(
                    (to_q): Linear(in_features=320, out_features=320, bias=False)
                    (to_k): Linear(in_features=768, out_features=320, bias=False)
                    (to_v): Linear(in_features=768, out_features=320, bias=False)
                    (to_out): Sequential(
                      (0): Linear(in_features=320, out_features=320, bias=True)
                      (1): Dropout(p=0.0, inplace=False)
                    )
                  )
                  (norm1): LayerNorm((320,), eps=1e-05, elementwise_affine=True)
                  (norm2): LayerNorm((320,), eps=1e-05, elementwise_affine=True)
                  (norm3): LayerNorm((320,), eps=1e-05, elementwise_affine=True)
                )
              )
              (proj_out): Conv2d(320, 320, kernel_size=(1, 1), stride=(1, 1))
            )
          )
          (3): TimestepEmbedSequential(
            (0): Downsample(
              (op): Conv2d(320, 320, kernel_size=(3, 3), stride=(2, 2), padding=(1, 1))
            )
          )
          (4): TimestepEmbedSequential(
            (0): ResBlock(
              (in_layers): Sequential(
                (0): GroupNorm32(32, 320, eps=1e-05, affine=True)
                (1): SiLU()
                (2): Conv2d(320, 640, kernel_size=(3, 3), stride=(1, 1), padding=(1, 1))
              )
              (h_upd): Identity()
              (x_upd): Identity()
              (emb_layers): Sequential(
                (0): SiLU()
                (1): Linear(in_features=1280, out_features=640, bias=True)
              )
              (out_layers): Sequential(
                (0): GroupNorm32(32, 640, eps=1e-05, affine=True)
                (1): SiLU()
                (2): Dropout(p=0, inplace=False)
                (3): Conv2d(640, 640, kernel_size=(3, 3), stride=(1, 1), padding=(1, 1))
              )
              (skip_connection): Conv2d(320, 640, kernel_size=(1, 1), stride=(1, 1))
            )
            (1): SpatialTransformer(
              (norm): GroupNorm(32, 640, eps=1e-06, affine=True)
              (proj_in): Conv2d(640, 640, kernel_size=(1, 1), stride=(1, 1))
              (transformer_blocks): ModuleList(
                (0): BasicTransformerBlock(
                  (attn1): CrossAttention(
                    (to_q): Linear(in_features=640, out_features=640, bias=False)
                    (to_k): Linear(in_features=640, out_features=640, bias=False)
                    (to_v): Linear(in_features=640, out_features=640, bias=False)
                    (to_out): Sequential(
                      (0): Linear(in_features=640, out_features=640, bias=True)
                      (1): Dropout(p=0.0, inplace=False)
                    )
                  )
                  (ff): FeedForward(
                    (net): Sequential(
                      (0): GEGLU(
                        (proj): Linear(in_features=640, out_features=5120, bias=True)
                      )
                      (1): Dropout(p=0.0, inplace=False)
                      (2): Linear(in_features=2560, out_features=640, bias=True)
                    )
                  )
                  (attn2): CrossAttention(
                    (to_q): Linear(in_features=640, out_features=640, bias=False)
                    (to_k): Linear(in_features=768, out_features=640, bias=False)
                    (to_v): Linear(in_features=768, out_features=640, bias=False)
                    (to_out): Sequential(
                      (0): Linear(in_features=640, out_features=640, bias=True)
                      (1): Dropout(p=0.0, inplace=False)
                    )
                  )
                  (norm1): LayerNorm((640,), eps=1e-05, elementwise_affine=True)
                  (norm2): LayerNorm((640,), eps=1e-05, elementwise_affine=True)
                  (norm3): LayerNorm((640,), eps=1e-05, elementwise_affine=True)
                )
              )
              (proj_out): Conv2d(640, 640, kernel_size=(1, 1), stride=(1, 1))
            )
          )
          (5): TimestepEmbedSequential(
            (0): ResBlock(
              (in_layers): Sequential(
                (0): GroupNorm32(32, 640, eps=1e-05, affine=True)
                (1): SiLU()
                (2): Conv2d(640, 640, kernel_size=(3, 3), stride=(1, 1), padding=(1, 1))
              )
              (h_upd): Identity()
              (x_upd): Identity()
              (emb_layers): Sequential(
                (0): SiLU()
                (1): Linear(in_features=1280, out_features=640, bias=True)
              )
              (out_layers): Sequential(
                (0): GroupNorm32(32, 640, eps=1e-05, affine=True)
                (1): SiLU()
                (2): Dropout(p=0, inplace=False)
                (3): Conv2d(640, 640, kernel_size=(3, 3), stride=(1, 1), padding=(1, 1))
              )
              (skip_connection): Identity()
            )
            (1): SpatialTransformer(
              (norm): GroupNorm(32, 640, eps=1e-06, affine=True)
              (proj_in): Conv2d(640, 640, kernel_size=(1, 1), stride=(1, 1))
              (transformer_blocks): ModuleList(
                (0): BasicTransformerBlock(
                  (attn1): CrossAttention(
                    (to_q): Linear(in_features=640, out_features=640, bias=False)
                    (to_k): Linear(in_features=640, out_features=640, bias=False)
                    (to_v): Linear(in_features=640, out_features=640, bias=False)
                    (to_out): Sequential(
                      (0): Linear(in_features=640, out_features=640, bias=True)
                      (1): Dropout(p=0.0, inplace=False)
                    )
                  )
                  (ff): FeedForward(
                    (net): Sequential(
                      (0): GEGLU(
                        (proj): Linear(in_features=640, out_features=5120, bias=True)
                      )
                      (1): Dropout(p=0.0, inplace=False)
                      (2): Linear(in_features=2560, out_features=640, bias=True)
                    )
                  )
                  (attn2): CrossAttention(
                    (to_q): Linear(in_features=640, out_features=640, bias=False)
                    (to_k): Linear(in_features=768, out_features=640, bias=False)
                    (to_v): Linear(in_features=768, out_features=640, bias=False)
                    (to_out): Sequential(
                      (0): Linear(in_features=640, out_features=640, bias=True)
                      (1): Dropout(p=0.0, inplace=False)
                    )
                  )
                  (norm1): LayerNorm((640,), eps=1e-05, elementwise_affine=True)
                  (norm2): LayerNorm((640,), eps=1e-05, elementwise_affine=True)
                  (norm3): LayerNorm((640,), eps=1e-05, elementwise_affine=True)
                )
              )
              (proj_out): Conv2d(640, 640, kernel_size=(1, 1), stride=(1, 1))
            )
          )
          (6): TimestepEmbedSequential(
            (0): Downsample(
              (op): Conv2d(640, 640, kernel_size=(3, 3), stride=(2, 2), padding=(1, 1))
            )
          )
          (7): TimestepEmbedSequential(
            (0): ResBlock(
              (in_layers): Sequential(
                (0): GroupNorm32(32, 640, eps=1e-05, affine=True)
                (1): SiLU()
                (2): Conv2d(640, 1280, kernel_size=(3, 3), stride=(1, 1), padding=(1, 1))
              )
              (h_upd): Identity()
              (x_upd): Identity()
              (emb_layers): Sequential(
                (0): SiLU()
                (1): Linear(in_features=1280, out_features=1280, bias=True)
              )
              (out_layers): Sequential(
                (0): GroupNorm32(32, 1280, eps=1e-05, affine=True)
                (1): SiLU()
                (2): Dropout(p=0, inplace=False)
                (3): Conv2d(1280, 1280, kernel_size=(3, 3), stride=(1, 1), padding=(1, 1))
              )
              (skip_connection): Conv2d(640, 1280, kernel_size=(1, 1), stride=(1, 1))
            )
            (1): SpatialTransformer(
              (norm): GroupNorm(32, 1280, eps=1e-06, affine=True)
              (proj_in): Conv2d(1280, 1280, kernel_size=(1, 1), stride=(1, 1))
              (transformer_blocks): ModuleList(
                (0): BasicTransformerBlock(
                  (attn1): CrossAttention(
                    (to_q): Linear(in_features=1280, out_features=1280, bias=False)
                    (to_k): Linear(in_features=1280, out_features=1280, bias=False)
                    (to_v): Linear(in_features=1280, out_features=1280, bias=False)
                    (to_out): Sequential(
                      (0): Linear(in_features=1280, out_features=1280, bias=True)
                      (1): Dropout(p=0.0, inplace=False)
                    )
                  )
                  (ff): FeedForward(
                    (net): Sequential(
                      (0): GEGLU(
                        (proj): Linear(in_features=1280, out_features=10240, bias=True)
                      )
                      (1): Dropout(p=0.0, inplace=False)
                      (2): Linear(in_features=5120, out_features=1280, bias=True)
                    )
                  )
                  (attn2): CrossAttention(
                    (to_q): Linear(in_features=1280, out_features=1280, bias=False)
                    (to_k): Linear(in_features=768, out_features=1280, bias=False)
                    (to_v): Linear(in_features=768, out_features=1280, bias=False)
                    (to_out): Sequential(
                      (0): Linear(in_features=1280, out_features=1280, bias=True)
                      (1): Dropout(p=0.0, inplace=False)
                    )
                  )
                  (norm1): LayerNorm((1280,), eps=1e-05, elementwise_affine=True)
                  (norm2): LayerNorm((1280,), eps=1e-05, elementwise_affine=True)
                  (norm3): LayerNorm((1280,), eps=1e-05, elementwise_affine=True)
                )
              )
              (proj_out): Conv2d(1280, 1280, kernel_size=(1, 1), stride=(1, 1))
            )
          )
          (8): TimestepEmbedSequential(
            (0): ResBlock(
              (in_layers): Sequential(
                (0): GroupNorm32(32, 1280, eps=1e-05, affine=True)
                (1): SiLU()
                (2): Conv2d(1280, 1280, kernel_size=(3, 3), stride=(1, 1), padding=(1, 1))
              )
              (h_upd): Identity()
              (x_upd): Identity()
              (emb_layers): Sequential(
                (0): SiLU()
                (1): Linear(in_features=1280, out_features=1280, bias=True)
              )
              (out_layers): Sequential(
                (0): GroupNorm32(32, 1280, eps=1e-05, affine=True)
                (1): SiLU()
                (2): Dropout(p=0, inplace=False)
                (3): Conv2d(1280, 1280, kernel_size=(3, 3), stride=(1, 1), padding=(1, 1))
              )
              (skip_connection): Identity()
            )
            (1): SpatialTransformer(
              (norm): GroupNorm(32, 1280, eps=1e-06, affine=True)
              (proj_in): Conv2d(1280, 1280, kernel_size=(1, 1), stride=(1, 1))
              (transformer_blocks): ModuleList(
                (0): BasicTransformerBlock(
                  (attn1): CrossAttention(
                    (to_q): Linear(in_features=1280, out_features=1280, bias=False)
                    (to_k): Linear(in_features=1280, out_features=1280, bias=False)
                    (to_v): Linear(in_features=1280, out_features=1280, bias=False)
                    (to_out): Sequential(
                      (0): Linear(in_features=1280, out_features=1280, bias=True)
                      (1): Dropout(p=0.0, inplace=False)
                    )
                  )
                  (ff): FeedForward(
                    (net): Sequential(
                      (0): GEGLU(
                        (proj): Linear(in_features=1280, out_features=10240, bias=True)
                      )
                      (1): Dropout(p=0.0, inplace=False)
                      (2): Linear(in_features=5120, out_features=1280, bias=True)
                    )
                  )
                  (attn2): CrossAttention(
                    (to_q): Linear(in_features=1280, out_features=1280, bias=False)
                    (to_k): Linear(in_features=768, out_features=1280, bias=False)
                    (to_v): Linear(in_features=768, out_features=1280, bias=False)
                    (to_out): Sequential(
                      (0): Linear(in_features=1280, out_features=1280, bias=True)
                      (1): Dropout(p=0.0, inplace=False)
                    )
                  )
                  (norm1): LayerNorm((1280,), eps=1e-05, elementwise_affine=True)
                  (norm2): LayerNorm((1280,), eps=1e-05, elementwise_affine=True)
                  (norm3): LayerNorm((1280,), eps=1e-05, elementwise_affine=True)
                )
              )
              (proj_out): Conv2d(1280, 1280, kernel_size=(1, 1), stride=(1, 1))
            )
          )
          (9): TimestepEmbedSequential(
            (0): Downsample(
              (op): Conv2d(1280, 1280, kernel_size=(3, 3), stride=(2, 2), padding=(1, 1))
            )
          )
          (10): TimestepEmbedSequential(
            (0): ResBlock(
              (in_layers): Sequential(
                (0): GroupNorm32(32, 1280, eps=1e-05, affine=True)
                (1): SiLU()
                (2): Conv2d(1280, 1280, kernel_size=(3, 3), stride=(1, 1), padding=(1, 1))
              )
              (h_upd): Identity()
              (x_upd): Identity()
              (emb_layers): Sequential(
                (0): SiLU()
                (1): Linear(in_features=1280, out_features=1280, bias=True)
              )
              (out_layers): Sequential(
                (0): GroupNorm32(32, 1280, eps=1e-05, affine=True)
                (1): SiLU()
                (2): Dropout(p=0, inplace=False)
                (3): Conv2d(1280, 1280, kernel_size=(3, 3), stride=(1, 1), padding=(1, 1))
              )
              (skip_connection): Identity()
            )
          )
          (11): TimestepEmbedSequential(
            (0): ResBlock(
              (in_layers): Sequential(
                (0): GroupNorm32(32, 1280, eps=1e-05, affine=True)
                (1): SiLU()
                (2): Conv2d(1280, 1280, kernel_size=(3, 3), stride=(1, 1), padding=(1, 1))
              )
              (h_upd): Identity()
              (x_upd): Identity()
              (emb_layers): Sequential(
                (0): SiLU()
                (1): Linear(in_features=1280, out_features=1280, bias=True)
              )
              (out_layers): Sequential(
                (0): GroupNorm32(32, 1280, eps=1e-05, affine=True)
                (1): SiLU()
                (2): Dropout(p=0, inplace=False)
                (3): Conv2d(1280, 1280, kernel_size=(3, 3), stride=(1, 1), padding=(1, 1))
              )
              (skip_connection): Identity()
            )
          )
        )
        (middle_block): TimestepEmbedSequential(
          (0): ResBlock(
            (in_layers): Sequential(
              (0): GroupNorm32(32, 1280, eps=1e-05, affine=True)
              (1): SiLU()
              (2): Conv2d(1280, 1280, kernel_size=(3, 3), stride=(1, 1), padding=(1, 1))
            )
            (h_upd): Identity()
            (x_upd): Identity()
            (emb_layers): Sequential(
              (0): SiLU()
              (1): Linear(in_features=1280, out_features=1280, bias=True)
            )
            (out_layers): Sequential(
              (0): GroupNorm32(32, 1280, eps=1e-05, affine=True)
              (1): SiLU()
              (2): Dropout(p=0, inplace=False)
              (3): Conv2d(1280, 1280, kernel_size=(3, 3), stride=(1, 1), padding=(1, 1))
            )
            (skip_connection): Identity()
          )
          (1): SpatialTransformer(
            (norm): GroupNorm(32, 1280, eps=1e-06, affine=True)
            (proj_in): Conv2d(1280, 1280, kernel_size=(1, 1), stride=(1, 1))
            (transformer_blocks): ModuleList(
              (0): BasicTransformerBlock(
                (attn1): CrossAttention(
                  (to_q): Linear(in_features=1280, out_features=1280, bias=False)
                  (to_k): Linear(in_features=1280, out_features=1280, bias=False)
                  (to_v): Linear(in_features=1280, out_features=1280, bias=False)
                  (to_out): Sequential(
                    (0): Linear(in_features=1280, out_features=1280, bias=True)
                    (1): Dropout(p=0.0, inplace=False)
                  )
                )
                (ff): FeedForward(
                  (net): Sequential(
                    (0): GEGLU(
                      (proj): Linear(in_features=1280, out_features=10240, bias=True)
                    )
                    (1): Dropout(p=0.0, inplace=False)
                    (2): Linear(in_features=5120, out_features=1280, bias=True)
                  )
                )
                (attn2): CrossAttention(
                  (to_q): Linear(in_features=1280, out_features=1280, bias=False)
                  (to_k): Linear(in_features=768, out_features=1280, bias=False)
                  (to_v): Linear(in_features=768, out_features=1280, bias=False)
                  (to_out): Sequential(
                    (0): Linear(in_features=1280, out_features=1280, bias=True)
                    (1): Dropout(p=0.0, inplace=False)
                  )
                )
                (norm1): LayerNorm((1280,), eps=1e-05, elementwise_affine=True)
                (norm2): LayerNorm((1280,), eps=1e-05, elementwise_affine=True)
                (norm3): LayerNorm((1280,), eps=1e-05, elementwise_affine=True)
              )
            )
            (proj_out): Conv2d(1280, 1280, kernel_size=(1, 1), stride=(1, 1))
          )
          (2): ResBlock(
            (in_layers): Sequential(
              (0): GroupNorm32(32, 1280, eps=1e-05, affine=True)
              (1): SiLU()
              (2): Conv2d(1280, 1280, kernel_size=(3, 3), stride=(1, 1), padding=(1, 1))
            )
            (h_upd): Identity()
            (x_upd): Identity()
            (emb_layers): Sequential(
              (0): SiLU()
              (1): Linear(in_features=1280, out_features=1280, bias=True)
            )
            (out_layers): Sequential(
              (0): GroupNorm32(32, 1280, eps=1e-05, affine=True)
              (1): SiLU()
              (2): Dropout(p=0, inplace=False)
              (3): Conv2d(1280, 1280, kernel_size=(3, 3), stride=(1, 1), padding=(1, 1))
            )
            (skip_connection): Identity()
          )
        )
        (output_blocks): ModuleList(
          (0): TimestepEmbedSequential(
            (0): ResBlock(
              (in_layers): Sequential(
                (0): GroupNorm32(32, 2560, eps=1e-05, affine=True)
                (1): SiLU()
                (2): Conv2d(2560, 1280, kernel_size=(3, 3), stride=(1, 1), padding=(1, 1))
              )
              (h_upd): Identity()
              (x_upd): Identity()
              (emb_layers): Sequential(
                (0): SiLU()
                (1): Linear(in_features=1280, out_features=1280, bias=True)
              )
              (out_layers): Sequential(
                (0): GroupNorm32(32, 1280, eps=1e-05, affine=True)
                (1): SiLU()
                (2): Dropout(p=0, inplace=False)
                (3): Conv2d(1280, 1280, kernel_size=(3, 3), stride=(1, 1), padding=(1, 1))
              )
              (skip_connection): Conv2d(2560, 1280, kernel_size=(1, 1), stride=(1, 1))
            )
          )
          (1): TimestepEmbedSequential(
            (0): ResBlock(
              (in_layers): Sequential(
                (0): GroupNorm32(32, 2560, eps=1e-05, affine=True)
                (1): SiLU()
                (2): Conv2d(2560, 1280, kernel_size=(3, 3), stride=(1, 1), padding=(1, 1))
              )
              (h_upd): Identity()
              (x_upd): Identity()
              (emb_layers): Sequential(
                (0): SiLU()
                (1): Linear(in_features=1280, out_features=1280, bias=True)
              )
              (out_layers): Sequential(
                (0): GroupNorm32(32, 1280, eps=1e-05, affine=True)
                (1): SiLU()
                (2): Dropout(p=0, inplace=False)
                (3): Conv2d(1280, 1280, kernel_size=(3, 3), stride=(1, 1), padding=(1, 1))
              )
              (skip_connection): Conv2d(2560, 1280, kernel_size=(1, 1), stride=(1, 1))
            )
          )
          (2): TimestepEmbedSequential(
            (0): ResBlock(
              (in_layers): Sequential(
                (0): GroupNorm32(32, 2560, eps=1e-05, affine=True)
                (1): SiLU()
                (2): Conv2d(2560, 1280, kernel_size=(3, 3), stride=(1, 1), padding=(1, 1))
              )
              (h_upd): Identity()
              (x_upd): Identity()
              (emb_layers): Sequential(
                (0): SiLU()
                (1): Linear(in_features=1280, out_features=1280, bias=True)
              )
              (out_layers): Sequential(
                (0): GroupNorm32(32, 1280, eps=1e-05, affine=True)
                (1): SiLU()
                (2): Dropout(p=0, inplace=False)
                (3): Conv2d(1280, 1280, kernel_size=(3, 3), stride=(1, 1), padding=(1, 1))
              )
              (skip_connection): Conv2d(2560, 1280, kernel_size=(1, 1), stride=(1, 1))
            )
            (1): Upsample(
              (conv): Conv2d(1280, 1280, kernel_size=(3, 3), stride=(1, 1), padding=(1, 1))
            )
          )
          (3): TimestepEmbedSequential(
            (0): ResBlock(
              (in_layers): Sequential(
                (0): GroupNorm32(32, 2560, eps=1e-05, affine=True)
                (1): SiLU()
                (2): Conv2d(2560, 1280, kernel_size=(3, 3), stride=(1, 1), padding=(1, 1))
              )
              (h_upd): Identity()
              (x_upd): Identity()
              (emb_layers): Sequential(
                (0): SiLU()
                (1): Linear(in_features=1280, out_features=1280, bias=True)
              )
              (out_layers): Sequential(
                (0): GroupNorm32(32, 1280, eps=1e-05, affine=True)
                (1): SiLU()
                (2): Dropout(p=0, inplace=False)
                (3): Conv2d(1280, 1280, kernel_size=(3, 3), stride=(1, 1), padding=(1, 1))
              )
              (skip_connection): Conv2d(2560, 1280, kernel_size=(1, 1), stride=(1, 1))
            )
            (1): SpatialTransformer(
              (norm): GroupNorm(32, 1280, eps=1e-06, affine=True)
              (proj_in): Conv2d(1280, 1280, kernel_size=(1, 1), stride=(1, 1))
              (transformer_blocks): ModuleList(
                (0): BasicTransformerBlock(
                  (attn1): CrossAttention(
                    (to_q): Linear(in_features=1280, out_features=1280, bias=False)
                    (to_k): Linear(in_features=1280, out_features=1280, bias=False)
                    (to_v): Linear(in_features=1280, out_features=1280, bias=False)
                    (to_out): Sequential(
                      (0): Linear(in_features=1280, out_features=1280, bias=True)
                      (1): Dropout(p=0.0, inplace=False)
                    )
                  )
                  (ff): FeedForward(
                    (net): Sequential(
                      (0): GEGLU(
                        (proj): Linear(in_features=1280, out_features=10240, bias=True)
                      )
                      (1): Dropout(p=0.0, inplace=False)
                      (2): Linear(in_features=5120, out_features=1280, bias=True)
                    )
                  )
                  (attn2): CrossAttention(
                    (to_q): Linear(in_features=1280, out_features=1280, bias=False)
                    (to_k): Linear(in_features=768, out_features=1280, bias=False)
                    (to_v): Linear(in_features=768, out_features=1280, bias=False)
                    (to_out): Sequential(
                      (0): Linear(in_features=1280, out_features=1280, bias=True)
                      (1): Dropout(p=0.0, inplace=False)
                    )
                  )
                  (norm1): LayerNorm((1280,), eps=1e-05, elementwise_affine=True)
                  (norm2): LayerNorm((1280,), eps=1e-05, elementwise_affine=True)
                  (norm3): LayerNorm((1280,), eps=1e-05, elementwise_affine=True)
                )
              )
              (proj_out): Conv2d(1280, 1280, kernel_size=(1, 1), stride=(1, 1))
            )
          )
          (4): TimestepEmbedSequential(
            (0): ResBlock(
              (in_layers): Sequential(
                (0): GroupNorm32(32, 2560, eps=1e-05, affine=True)
                (1): SiLU()
                (2): Conv2d(2560, 1280, kernel_size=(3, 3), stride=(1, 1), padding=(1, 1))
              )
              (h_upd): Identity()
              (x_upd): Identity()
              (emb_layers): Sequential(
                (0): SiLU()
                (1): Linear(in_features=1280, out_features=1280, bias=True)
              )
              (out_layers): Sequential(
                (0): GroupNorm32(32, 1280, eps=1e-05, affine=True)
                (1): SiLU()
                (2): Dropout(p=0, inplace=False)
                (3): Conv2d(1280, 1280, kernel_size=(3, 3), stride=(1, 1), padding=(1, 1))
              )
              (skip_connection): Conv2d(2560, 1280, kernel_size=(1, 1), stride=(1, 1))
            )
            (1): SpatialTransformer(
              (norm): GroupNorm(32, 1280, eps=1e-06, affine=True)
              (proj_in): Conv2d(1280, 1280, kernel_size=(1, 1), stride=(1, 1))
              (transformer_blocks): ModuleList(
                (0): BasicTransformerBlock(
                  (attn1): CrossAttention(
                    (to_q): Linear(in_features=1280, out_features=1280, bias=False)
                    (to_k): Linear(in_features=1280, out_features=1280, bias=False)
                    (to_v): Linear(in_features=1280, out_features=1280, bias=False)
                    (to_out): Sequential(
                      (0): Linear(in_features=1280, out_features=1280, bias=True)
                      (1): Dropout(p=0.0, inplace=False)
                    )
                  )
                  (ff): FeedForward(
                    (net): Sequential(
                      (0): GEGLU(
                        (proj): Linear(in_features=1280, out_features=10240, bias=True)
                      )
                      (1): Dropout(p=0.0, inplace=False)
                      (2): Linear(in_features=5120, out_features=1280, bias=True)
                    )
                  )
                  (attn2): CrossAttention(
                    (to_q): Linear(in_features=1280, out_features=1280, bias=False)
                    (to_k): Linear(in_features=768, out_features=1280, bias=False)
                    (to_v): Linear(in_features=768, out_features=1280, bias=False)
                    (to_out): Sequential(
                      (0): Linear(in_features=1280, out_features=1280, bias=True)
                      (1): Dropout(p=0.0, inplace=False)
                    )
                  )
                  (norm1): LayerNorm((1280,), eps=1e-05, elementwise_affine=True)
                  (norm2): LayerNorm((1280,), eps=1e-05, elementwise_affine=True)
                  (norm3): LayerNorm((1280,), eps=1e-05, elementwise_affine=True)
                )
              )
              (proj_out): Conv2d(1280, 1280, kernel_size=(1, 1), stride=(1, 1))
            )
          )
          (5): TimestepEmbedSequential(
            (0): ResBlock(
              (in_layers): Sequential(
                (0): GroupNorm32(32, 1920, eps=1e-05, affine=True)
                (1): SiLU()
                (2): Conv2d(1920, 1280, kernel_size=(3, 3), stride=(1, 1), padding=(1, 1))
              )
              (h_upd): Identity()
              (x_upd): Identity()
              (emb_layers): Sequential(
                (0): SiLU()
                (1): Linear(in_features=1280, out_features=1280, bias=True)
              )
              (out_layers): Sequential(
                (0): GroupNorm32(32, 1280, eps=1e-05, affine=True)
                (1): SiLU()
                (2): Dropout(p=0, inplace=False)
                (3): Conv2d(1280, 1280, kernel_size=(3, 3), stride=(1, 1), padding=(1, 1))
              )
              (skip_connection): Conv2d(1920, 1280, kernel_size=(1, 1), stride=(1, 1))
            )
            (1): SpatialTransformer(
              (norm): GroupNorm(32, 1280, eps=1e-06, affine=True)
              (proj_in): Conv2d(1280, 1280, kernel_size=(1, 1), stride=(1, 1))
              (transformer_blocks): ModuleList(
                (0): BasicTransformerBlock(
                  (attn1): CrossAttention(
                    (to_q): Linear(in_features=1280, out_features=1280, bias=False)
                    (to_k): Linear(in_features=1280, out_features=1280, bias=False)
                    (to_v): Linear(in_features=1280, out_features=1280, bias=False)
                    (to_out): Sequential(
                      (0): Linear(in_features=1280, out_features=1280, bias=True)
                      (1): Dropout(p=0.0, inplace=False)
                    )
                  )
                  (ff): FeedForward(
                    (net): Sequential(
                      (0): GEGLU(
                        (proj): Linear(in_features=1280, out_features=10240, bias=True)
                      )
                      (1): Dropout(p=0.0, inplace=False)
                      (2): Linear(in_features=5120, out_features=1280, bias=True)
                    )
                  )
                  (attn2): CrossAttention(
                    (to_q): Linear(in_features=1280, out_features=1280, bias=False)
                    (to_k): Linear(in_features=768, out_features=1280, bias=False)
                    (to_v): Linear(in_features=768, out_features=1280, bias=False)
                    (to_out): Sequential(
                      (0): Linear(in_features=1280, out_features=1280, bias=True)
                      (1): Dropout(p=0.0, inplace=False)
                    )
                  )
                  (norm1): LayerNorm((1280,), eps=1e-05, elementwise_affine=True)
                  (norm2): LayerNorm((1280,), eps=1e-05, elementwise_affine=True)
                  (norm3): LayerNorm((1280,), eps=1e-05, elementwise_affine=True)
                )
              )
              (proj_out): Conv2d(1280, 1280, kernel_size=(1, 1), stride=(1, 1))
            )
            (2): Upsample(
              (conv): Conv2d(1280, 1280, kernel_size=(3, 3), stride=(1, 1), padding=(1, 1))
            )
          )
          (6): TimestepEmbedSequential(
            (0): ResBlock(
              (in_layers): Sequential(
                (0): GroupNorm32(32, 1920, eps=1e-05, affine=True)
                (1): SiLU()
                (2): Conv2d(1920, 640, kernel_size=(3, 3), stride=(1, 1), padding=(1, 1))
              )
              (h_upd): Identity()
              (x_upd): Identity()
              (emb_layers): Sequential(
                (0): SiLU()
                (1): Linear(in_features=1280, out_features=640, bias=True)
              )
              (out_layers): Sequential(
                (0): GroupNorm32(32, 640, eps=1e-05, affine=True)
                (1): SiLU()
                (2): Dropout(p=0, inplace=False)
                (3): Conv2d(640, 640, kernel_size=(3, 3), stride=(1, 1), padding=(1, 1))
              )
              (skip_connection): Conv2d(1920, 640, kernel_size=(1, 1), stride=(1, 1))
            )
            (1): SpatialTransformer(
              (norm): GroupNorm(32, 640, eps=1e-06, affine=True)
              (proj_in): Conv2d(640, 640, kernel_size=(1, 1), stride=(1, 1))
              (transformer_blocks): ModuleList(
                (0): BasicTransformerBlock(
                  (attn1): CrossAttention(
                    (to_q): Linear(in_features=640, out_features=640, bias=False)
                    (to_k): Linear(in_features=640, out_features=640, bias=False)
                    (to_v): Linear(in_features=640, out_features=640, bias=False)
                    (to_out): Sequential(
                      (0): Linear(in_features=640, out_features=640, bias=True)
                      (1): Dropout(p=0.0, inplace=False)
                    )
                  )
                  (ff): FeedForward(
                    (net): Sequential(
                      (0): GEGLU(
                        (proj): Linear(in_features=640, out_features=5120, bias=True)
                      )
                      (1): Dropout(p=0.0, inplace=False)
                      (2): Linear(in_features=2560, out_features=640, bias=True)
                    )
                  )
                  (attn2): CrossAttention(
                    (to_q): Linear(in_features=640, out_features=640, bias=False)
                    (to_k): Linear(in_features=768, out_features=640, bias=False)
                    (to_v): Linear(in_features=768, out_features=640, bias=False)
                    (to_out): Sequential(
                      (0): Linear(in_features=640, out_features=640, bias=True)
                      (1): Dropout(p=0.0, inplace=False)
                    )
                  )
                  (norm1): LayerNorm((640,), eps=1e-05, elementwise_affine=True)
                  (norm2): LayerNorm((640,), eps=1e-05, elementwise_affine=True)
                  (norm3): LayerNorm((640,), eps=1e-05, elementwise_affine=True)
                )
              )
              (proj_out): Conv2d(640, 640, kernel_size=(1, 1), stride=(1, 1))
            )
          )
          (7): TimestepEmbedSequential(
            (0): ResBlock(
              (in_layers): Sequential(
                (0): GroupNorm32(32, 1280, eps=1e-05, affine=True)
                (1): SiLU()
                (2): Conv2d(1280, 640, kernel_size=(3, 3), stride=(1, 1), padding=(1, 1))
              )
              (h_upd): Identity()
              (x_upd): Identity()
              (emb_layers): Sequential(
                (0): SiLU()
                (1): Linear(in_features=1280, out_features=640, bias=True)
              )
              (out_layers): Sequential(
                (0): GroupNorm32(32, 640, eps=1e-05, affine=True)
                (1): SiLU()
                (2): Dropout(p=0, inplace=False)
                (3): Conv2d(640, 640, kernel_size=(3, 3), stride=(1, 1), padding=(1, 1))
              )
              (skip_connection): Conv2d(1280, 640, kernel_size=(1, 1), stride=(1, 1))
            )
            (1): SpatialTransformer(
              (norm): GroupNorm(32, 640, eps=1e-06, affine=True)
              (proj_in): Conv2d(640, 640, kernel_size=(1, 1), stride=(1, 1))
              (transformer_blocks): ModuleList(
                (0): BasicTransformerBlock(
                  (attn1): CrossAttention(
                    (to_q): Linear(in_features=640, out_features=640, bias=False)
                    (to_k): Linear(in_features=640, out_features=640, bias=False)
                    (to_v): Linear(in_features=640, out_features=640, bias=False)
                    (to_out): Sequential(
                      (0): Linear(in_features=640, out_features=640, bias=True)
                      (1): Dropout(p=0.0, inplace=False)
                    )
                  )
                  (ff): FeedForward(
                    (net): Sequential(
                      (0): GEGLU(
                        (proj): Linear(in_features=640, out_features=5120, bias=True)
                      )
                      (1): Dropout(p=0.0, inplace=False)
                      (2): Linear(in_features=2560, out_features=640, bias=True)
                    )
                  )
                  (attn2): CrossAttention(
                    (to_q): Linear(in_features=640, out_features=640, bias=False)
                    (to_k): Linear(in_features=768, out_features=640, bias=False)
                    (to_v): Linear(in_features=768, out_features=640, bias=False)
                    (to_out): Sequential(
                      (0): Linear(in_features=640, out_features=640, bias=True)
                      (1): Dropout(p=0.0, inplace=False)
                    )
                  )
                  (norm1): LayerNorm((640,), eps=1e-05, elementwise_affine=True)
                  (norm2): LayerNorm((640,), eps=1e-05, elementwise_affine=True)
                  (norm3): LayerNorm((640,), eps=1e-05, elementwise_affine=True)
                )
              )
              (proj_out): Conv2d(640, 640, kernel_size=(1, 1), stride=(1, 1))
            )
          )
          (8): TimestepEmbedSequential(
            (0): ResBlock(
              (in_layers): Sequential(
                (0): GroupNorm32(32, 960, eps=1e-05, affine=True)
                (1): SiLU()
                (2): Conv2d(960, 640, kernel_size=(3, 3), stride=(1, 1), padding=(1, 1))
              )
              (h_upd): Identity()
              (x_upd): Identity()
              (emb_layers): Sequential(
                (0): SiLU()
                (1): Linear(in_features=1280, out_features=640, bias=True)
              )
              (out_layers): Sequential(
                (0): GroupNorm32(32, 640, eps=1e-05, affine=True)
                (1): SiLU()
                (2): Dropout(p=0, inplace=False)
                (3): Conv2d(640, 640, kernel_size=(3, 3), stride=(1, 1), padding=(1, 1))
              )
              (skip_connection): Conv2d(960, 640, kernel_size=(1, 1), stride=(1, 1))
            )
            (1): SpatialTransformer(
              (norm): GroupNorm(32, 640, eps=1e-06, affine=True)
              (proj_in): Conv2d(640, 640, kernel_size=(1, 1), stride=(1, 1))
              (transformer_blocks): ModuleList(
                (0): BasicTransformerBlock(
                  (attn1): CrossAttention(
                    (to_q): Linear(in_features=640, out_features=640, bias=False)
                    (to_k): Linear(in_features=640, out_features=640, bias=False)
                    (to_v): Linear(in_features=640, out_features=640, bias=False)
                    (to_out): Sequential(
                      (0): Linear(in_features=640, out_features=640, bias=True)
                      (1): Dropout(p=0.0, inplace=False)
                    )
                  )
                  (ff): FeedForward(
                    (net): Sequential(
                      (0): GEGLU(
                        (proj): Linear(in_features=640, out_features=5120, bias=True)
                      )
                      (1): Dropout(p=0.0, inplace=False)
                      (2): Linear(in_features=2560, out_features=640, bias=True)
                    )
                  )
                  (attn2): CrossAttention(
                    (to_q): Linear(in_features=640, out_features=640, bias=False)
                    (to_k): Linear(in_features=768, out_features=640, bias=False)
                    (to_v): Linear(in_features=768, out_features=640, bias=False)
                    (to_out): Sequential(
                      (0): Linear(in_features=640, out_features=640, bias=True)
                      (1): Dropout(p=0.0, inplace=False)
                    )
                  )
                  (norm1): LayerNorm((640,), eps=1e-05, elementwise_affine=True)
                  (norm2): LayerNorm((640,), eps=1e-05, elementwise_affine=True)
                  (norm3): LayerNorm((640,), eps=1e-05, elementwise_affine=True)
                )
              )
              (proj_out): Conv2d(640, 640, kernel_size=(1, 1), stride=(1, 1))
            )
            (2): Upsample(
              (conv): Conv2d(640, 640, kernel_size=(3, 3), stride=(1, 1), padding=(1, 1))
            )
          )
          (9): TimestepEmbedSequential(
            (0): ResBlock(
              (in_layers): Sequential(
                (0): GroupNorm32(32, 960, eps=1e-05, affine=True)
                (1): SiLU()
                (2): Conv2d(960, 320, kernel_size=(3, 3), stride=(1, 1), padding=(1, 1))
              )
              (h_upd): Identity()
              (x_upd): Identity()
              (emb_layers): Sequential(
                (0): SiLU()
                (1): Linear(in_features=1280, out_features=320, bias=True)
              )
              (out_layers): Sequential(
                (0): GroupNorm32(32, 320, eps=1e-05, affine=True)
                (1): SiLU()
                (2): Dropout(p=0, inplace=False)
                (3): Conv2d(320, 320, kernel_size=(3, 3), stride=(1, 1), padding=(1, 1))
              )
              (skip_connection): Conv2d(960, 320, kernel_size=(1, 1), stride=(1, 1))
            )
            (1): SpatialTransformer(
              (norm): GroupNorm(32, 320, eps=1e-06, affine=True)
              (proj_in): Conv2d(320, 320, kernel_size=(1, 1), stride=(1, 1))
              (transformer_blocks): ModuleList(
                (0): BasicTransformerBlock(
                  (attn1): CrossAttention(
                    (to_q): Linear(in_features=320, out_features=320, bias=False)
                    (to_k): Linear(in_features=320, out_features=320, bias=False)
                    (to_v): Linear(in_features=320, out_features=320, bias=False)
                    (to_out): Sequential(
                      (0): Linear(in_features=320, out_features=320, bias=True)
                      (1): Dropout(p=0.0, inplace=False)
                    )
                  )
                  (ff): FeedForward(
                    (net): Sequential(
                      (0): GEGLU(
                        (proj): Linear(in_features=320, out_features=2560, bias=True)
                      )
                      (1): Dropout(p=0.0, inplace=False)
                      (2): Linear(in_features=1280, out_features=320, bias=True)
                    )
                  )
                  (attn2): CrossAttention(
                    (to_q): Linear(in_features=320, out_features=320, bias=False)
                    (to_k): Linear(in_features=768, out_features=320, bias=False)
                    (to_v): Linear(in_features=768, out_features=320, bias=False)
                    (to_out): Sequential(
                      (0): Linear(in_features=320, out_features=320, bias=True)
                      (1): Dropout(p=0.0, inplace=False)
                    )
                  )
                  (norm1): LayerNorm((320,), eps=1e-05, elementwise_affine=True)
                  (norm2): LayerNorm((320,), eps=1e-05, elementwise_affine=True)
                  (norm3): LayerNorm((320,), eps=1e-05, elementwise_affine=True)
                )
              )
              (proj_out): Conv2d(320, 320, kernel_size=(1, 1), stride=(1, 1))
            )
          )
          (10): TimestepEmbedSequential(
            (0): ResBlock(
              (in_layers): Sequential(
                (0): GroupNorm32(32, 640, eps=1e-05, affine=True)
                (1): SiLU()
                (2): Conv2d(640, 320, kernel_size=(3, 3), stride=(1, 1), padding=(1, 1))
              )
              (h_upd): Identity()
              (x_upd): Identity()
              (emb_layers): Sequential(
                (0): SiLU()
                (1): Linear(in_features=1280, out_features=320, bias=True)
              )
              (out_layers): Sequential(
                (0): GroupNorm32(32, 320, eps=1e-05, affine=True)
                (1): SiLU()
                (2): Dropout(p=0, inplace=False)
                (3): Conv2d(320, 320, kernel_size=(3, 3), stride=(1, 1), padding=(1, 1))
              )
              (skip_connection): Conv2d(640, 320, kernel_size=(1, 1), stride=(1, 1))
            )
            (1): SpatialTransformer(
              (norm): GroupNorm(32, 320, eps=1e-06, affine=True)
              (proj_in): Conv2d(320, 320, kernel_size=(1, 1), stride=(1, 1))
              (transformer_blocks): ModuleList(
                (0): BasicTransformerBlock(
                  (attn1): CrossAttention(
                    (to_q): Linear(in_features=320, out_features=320, bias=False)
                    (to_k): Linear(in_features=320, out_features=320, bias=False)
                    (to_v): Linear(in_features=320, out_features=320, bias=False)
                    (to_out): Sequential(
                      (0): Linear(in_features=320, out_features=320, bias=True)
                      (1): Dropout(p=0.0, inplace=False)
                    )
                  )
                  (ff): FeedForward(
                    (net): Sequential(
                      (0): GEGLU(
                        (proj): Linear(in_features=320, out_features=2560, bias=True)
                      )
                      (1): Dropout(p=0.0, inplace=False)
                      (2): Linear(in_features=1280, out_features=320, bias=True)
                    )
                  )
                  (attn2): CrossAttention(
                    (to_q): Linear(in_features=320, out_features=320, bias=False)
                    (to_k): Linear(in_features=768, out_features=320, bias=False)
                    (to_v): Linear(in_features=768, out_features=320, bias=False)
                    (to_out): Sequential(
                      (0): Linear(in_features=320, out_features=320, bias=True)
                      (1): Dropout(p=0.0, inplace=False)
                    )
                  )
                  (norm1): LayerNorm((320,), eps=1e-05, elementwise_affine=True)
                  (norm2): LayerNorm((320,), eps=1e-05, elementwise_affine=True)
                  (norm3): LayerNorm((320,), eps=1e-05, elementwise_affine=True)
                )
              )
              (proj_out): Conv2d(320, 320, kernel_size=(1, 1), stride=(1, 1))
            )
          )
          (11): TimestepEmbedSequential(
            (0): ResBlock(
              (in_layers): Sequential(
                (0): GroupNorm32(32, 640, eps=1e-05, affine=True)
                (1): SiLU()
                (2): Conv2d(640, 320, kernel_size=(3, 3), stride=(1, 1), padding=(1, 1))
              )
              (h_upd): Identity()
              (x_upd): Identity()
              (emb_layers): Sequential(
                (0): SiLU()
                (1): Linear(in_features=1280, out_features=320, bias=True)
              )
              (out_layers): Sequential(
                (0): GroupNorm32(32, 320, eps=1e-05, affine=True)
                (1): SiLU()
                (2): Dropout(p=0, inplace=False)
                (3): Conv2d(320, 320, kernel_size=(3, 3), stride=(1, 1), padding=(1, 1))
              )
              (skip_connection): Conv2d(640, 320, kernel_size=(1, 1), stride=(1, 1))
            )
            (1): SpatialTransformer(
              (norm): GroupNorm(32, 320, eps=1e-06, affine=True)
              (proj_in): Conv2d(320, 320, kernel_size=(1, 1), stride=(1, 1))
              (transformer_blocks): ModuleList(
                (0): BasicTransformerBlock(
                  (attn1): CrossAttention(
                    (to_q): Linear(in_features=320, out_features=320, bias=False)
                    (to_k): Linear(in_features=320, out_features=320, bias=False)
                    (to_v): Linear(in_features=320, out_features=320, bias=False)
                    (to_out): Sequential(
                      (0): Linear(in_features=320, out_features=320, bias=True)
                      (1): Dropout(p=0.0, inplace=False)
                    )
                  )
                  (ff): FeedForward(
                    (net): Sequential(
                      (0): GEGLU(
                        (proj): Linear(in_features=320, out_features=2560, bias=True)
                      )
                      (1): Dropout(p=0.0, inplace=False)
                      (2): Linear(in_features=1280, out_features=320, bias=True)
                    )
                  )
                  (attn2): CrossAttention(
                    (to_q): Linear(in_features=320, out_features=320, bias=False)
                    (to_k): Linear(in_features=768, out_features=320, bias=False)
                    (to_v): Linear(in_features=768, out_features=320, bias=False)
                    (to_out): Sequential(
                      (0): Linear(in_features=320, out_features=320, bias=True)
                      (1): Dropout(p=0.0, inplace=False)
                    )
                  )
                  (norm1): LayerNorm((320,), eps=1e-05, elementwise_affine=True)
                  (norm2): LayerNorm((320,), eps=1e-05, elementwise_affine=True)
                  (norm3): LayerNorm((320,), eps=1e-05, elementwise_affine=True)
                )
              )
              (proj_out): Conv2d(320, 320, kernel_size=(1, 1), stride=(1, 1))
            )
          )
        )
        (out): Sequential(
          (0): GroupNorm32(32, 320, eps=1e-05, affine=True)
          (1): SiLU()
          (2): Conv2d(320, 4, kernel_size=(3, 3), stride=(1, 1), padding=(1, 1))
        )
      )
    )
    (zero_convs): ModuleList(
      (0): ZeroConv2d(320, 320, kernel_size=(1, 1), stride=(1, 1))
      (1): ZeroConv2d(320, 320, kernel_size=(1, 1), stride=(1, 1))
      (2): ZeroConv2d(640, 640, kernel_size=(1, 1), stride=(1, 1))
      (3): ZeroConv2d(640, 640, kernel_size=(1, 1), stride=(1, 1))
      (4): ZeroConv2d(1280, 1280, kernel_size=(1, 1), stride=(1, 1))
      (5): ZeroConv2d(1280, 1280, kernel_size=(1, 1), stride=(1, 1))
    )
  )
  (box_encoder): EncoderControlNet(
    (out64): Sequential(
      (0): Conv2d(320, 320, kernel_size=(3, 3), stride=(1, 1), padding=(1, 1))
      (1): ReLU(inplace=True)
    )
    (out32): Sequential(
      (0): Conv2d(640, 640, kernel_size=(3, 3), stride=(1, 1), padding=(1, 1))
      (1): ReLU(inplace=True)
    )
    (out16): Sequential(
      (0): Conv2d(1280, 1280, kernel_size=(3, 3), stride=(1, 1), padding=(1, 1))
      (1): ReLU(inplace=True)
    )
    (conv64): Sequential(
      (0): Conv2d(6, 128, kernel_size=(3, 3), stride=(2, 2), padding=(1, 1))
      (1): ReLU(inplace=True)
      (2): Conv2d(128, 320, kernel_size=(3, 3), stride=(2, 2), padding=(1, 1))
      (3): ReLU(inplace=True)
      (4): Conv2d(320, 320, kernel_size=(3, 3), stride=(2, 2), padding=(1, 1))
      (5): ReLU(inplace=True)
    )
    (conv32): Sequential(
      (0): Conv2d(320, 640, kernel_size=(3, 3), stride=(2, 2), padding=(1, 1))
      (1): ReLU(inplace=True)
    )
    (conv16): Sequential(
      (0): Conv2d(640, 1280, kernel_size=(3, 3), stride=(2, 2), padding=(1, 1))
      (1): ReLU(inplace=True)
    )
  )
  (sd_model): LatentDiffusion(
    (model): None
    (first_stage_model): None
  )
  (text_adapter): TextAdapter(
    (fc): Sequential(
      (0): Linear(in_features=768, out_features=768, bias=True)
      (1): GELU()
      (2): Linear(in_features=768, out_features=768, bias=True)
    )
  )
  (neck): FPN(
    (lateral_convs): ModuleList(
      (0): ConvModule(
        (conv): Conv2d(320, 256, kernel_size=(1, 1), stride=(1, 1))
      )
      (1): ConvModule(
        (conv): Conv2d(790, 256, kernel_size=(1, 1), stride=(1, 1))
      )
      (2): ConvModule(
        (conv): Conv2d(1430, 256, kernel_size=(1, 1), stride=(1, 1))
      )
      (3): ConvModule(
        (conv): Conv2d(1280, 256, kernel_size=(1, 1), stride=(1, 1))
      )
    )
    (fpn_convs): ModuleList(
      (0): ConvModule(
        (conv): Conv2d(256, 256, kernel_size=(3, 3), stride=(1, 1), padding=(1, 1))
      )
      (1): ConvModule(
        (conv): Conv2d(256, 256, kernel_size=(3, 3), stride=(1, 1), padding=(1, 1))
      )
      (2): ConvModule(
        (conv): Conv2d(256, 256, kernel_size=(3, 3), stride=(1, 1), padding=(1, 1))
      )
      (3): ConvModule(
        (conv): Conv2d(256, 256, kernel_size=(3, 3), stride=(1, 1), padding=(1, 1))
      )
    )
  )
  init_cfg={'type': 'Xavier', 'layer': 'Conv2d', 'distribution': 'uniform'}
  (decode_head): FPNHead(
    input_transform=multiple_select, ignore_index=255, align_corners=False
    (loss_decode): CrossEntropyLoss(avg_non_ignore=False)
    (conv_seg): Conv2d(256, 150, kernel_size=(1, 1), stride=(1, 1))
    (dropout): Dropout2d(p=0.1, inplace=False)
    (scale_heads): ModuleList(
      (0): Sequential(
        (0): ConvModule(
          (conv): Conv2d(256, 256, kernel_size=(3, 3), stride=(1, 1), padding=(1, 1), bias=False)
          (bn): _BatchNormXd(256, eps=1e-05, momentum=0.1, affine=True, track_running_stats=True)
          (activate): ReLU(inplace=True)
        )
      )
      (1): Sequential(
        (0): ConvModule(
          (conv): Conv2d(256, 256, kernel_size=(3, 3), stride=(1, 1), padding=(1, 1), bias=False)
          (bn): _BatchNormXd(256, eps=1e-05, momentum=0.1, affine=True, track_running_stats=True)
          (activate): ReLU(inplace=True)
        )
        (1): Upsample()
      )
      (2): Sequential(
        (0): ConvModule(
          (conv): Conv2d(256, 256, kernel_size=(3, 3), stride=(1, 1), padding=(1, 1), bias=False)
          (bn): _BatchNormXd(256, eps=1e-05, momentum=0.1, affine=True, track_running_stats=True)
          (activate): ReLU(inplace=True)
        )
        (1): Upsample()
        (2): ConvModule(
          (conv): Conv2d(256, 256, kernel_size=(3, 3), stride=(1, 1), padding=(1, 1), bias=False)
          (bn): _BatchNormXd(256, eps=1e-05, momentum=0.1, affine=True, track_running_stats=True)
          (activate): ReLU(inplace=True)
        )
        (3): Upsample()
      )
      (3): Sequential(
        (0): ConvModule(
          (conv): Conv2d(256, 256, kernel_size=(3, 3), stride=(1, 1), padding=(1, 1), bias=False)
          (bn): _BatchNormXd(256, eps=1e-05, momentum=0.1, affine=True, track_running_stats=True)
          (activate): ReLU(inplace=True)
        )
        (1): Upsample()
        (2): ConvModule(
          (conv): Conv2d(256, 256, kernel_size=(3, 3), stride=(1, 1), padding=(1, 1), bias=False)
          (bn): _BatchNormXd(256, eps=1e-05, momentum=0.1, affine=True, track_running_stats=True)
          (activate): ReLU(inplace=True)
        )
        (3): Upsample()
        (4): ConvModule(
          (conv): Conv2d(256, 256, kernel_size=(3, 3), stride=(1, 1), padding=(1, 1), bias=False)
          (bn): _BatchNormXd(256, eps=1e-05, momentum=0.1, affine=True, track_running_stats=True)
          (activate): ReLU(inplace=True)
        )
        (5): Upsample()
      )
    )
  )
  init_cfg={'type': 'Normal', 'std': 0.01, 'override': {'name': 'conv_seg'}}
)
2025-04-22 18:37:00,010 - mmseg - INFO - Loaded 20210 images
…
